model_dst.pt (torch, 23246 bytes, 16 tensors)

lstm_1.weight_ih f4 [40, 20]
-0.83465606 0.7255858 -0.06538477 -0.63897955 0.36455607 0.15367956 0.48731697 -0.24857074
-0.29322934 -0.48912472 0.8324694 -0.3167324 0.8240653 0.32686624 -0.28184295 0.32209194
-0.18562585 -0.4166684 0.7285254 -1.1010989 0.6925504 0.12562053 0.9321461 0.38921684
-0.38325045 -0.199976 -0.66504014 0.4045869 2.0850391 0.35128275 -0.43904042 -0.6621884
0.14264861 0.5806411 -0.27110124 -0.47253016 -0.14283288 0.12536953 1.0264523 -0.17302088
-0.055559203 -0.03571588 -0.38379094 -0.053490087 0.20085451 -0.50647795 0.004660691 0.5482745
-1.4968117 1.4305035 -0.19859426 -0.70060265 0.4586533 0.87152225 0.08276076 0.0787964
-0.116319515 0.18474172 1.4909298 -0.113134064 1.3000115 -1.0086364 1.7900019 0.9268465
-0.95428526 -0.11946259 -0.9888234 0.5154298 -0.64146966 0.1932598 0.15146677 0.6887527
-0.16393608 -0.2772209 -1.2145417 0.34293988 0.17079172 0.053168572 0.5688872 -0.686048
-0.79153305 0.49408174 -0.79146 -0.51798683 -0.45930582 0.87854636 0.89432585 -0.41329566
0.5441776 0.90124816 -0.44705686 0.46512893 0.26750645 -0.5186887 -0.17147239 -0.3110599
0.76537305 0.15833545 -0.165005 -0.98130715 -0.22890604 -0.52124536 -0.86595887 -0.26187107
0.49766216 0.5091106 0.5340755 0.1305999 0.659631 0.671929 0.6245291 -0.54736435
-0.32132608 -0.2849915 -0.5432159 0.6095655 -0.5811593 -0.56427264 -0.40098867 0.21747103
-0.032654487 0.44515738 -0.5562879 0.30461413 -0.27392158 0.06053156 -0.5343515 0.08899867
0.11873322 0.24303806 0.32121772 0.059092477 -0.024071822 0.91152894 0.51688683 -0.22528496
0.30762228 -0.93811554 -0.24330042 0.037271924 -0.15543814 0.55413365 -0.05260018 -0.15865342
-0.15090793 0.6319647 0.16607189 1.7239156 -0.45558757 1.2125942 -0.2877607 -0.007932361
-0.07373363 0.15881453 0.20650014 0.08140676 0.42024335 -0.55430084 0.15498129 0.12310233
0.3110885 -1.3455987 0.62429094 0.19175737 0.14575379 -0.42324236 -0.29021612 -1.970472
-1.8206786 0.57196695 1.46451 0.20424251 0.84660137 -0.0676204 -0.016633872 1.677693
0.06760481 -0.5225893 0.020865243 0.4186179 -0.014405028 0.34270826 0.514591 -0.11188398
1.064776 0.45093837 0.38945848 -0.570953 -1.5898379 0.16605443 -0.19391705 -0.55186534
-0.9550749 0.14756764 0.6461601 -0.40628874 0.14926656 -0.7688087 0.44903415 -0.45892394
-0.4920478 0.5649934 -1.395361 -0.62189806 -0.672049 0.02962075 0.5014135 0.0060985275
-0.9082653 0.5157911 -0.67207694 0.7753503 0.28687295 -0.18119124 -0.4567802 -0.48111123
0.19957101 0.024066199 0.14440039 -1.0296186 -0.064479955 1.1330328 -0.15823969 -0.12942901
1.098864 0.4409432 0.18491723 1.3801492 1.5605916 0.3241917 0.32739326 -0.9057263
0.62739694 0.11168456 0.46266216 0.45219216 -0.45300546 0.44825903 -0.071243435 0.059488196
-0.15616427 -2.5402834 -0.6771429 -0.22858073 -2.1852498 -0.7884669 -0.059157886 1.2095114
1.0436847 1.338138 -0.18146302 0.4204094 0.33628854 0.21915495 -1.3407489 -0.33534718
00000000: 05ac 55bf febf 393f 73e8 85bd 2a94 23bf
00000010: 18a7 ba3e 2d5e 1d3e 9c81 f93e 5489 7ebe
00000020: 2822 96be 8e6e fabe b71c 553f c02a a2be
00000030: f2f5 523f 035b a73e b84d 90be 3ce9 a43e
00000040: b414 3ebe 8f55 d5be a480 3a3f cff0 8cbf
00000050: fc4a 313f aba2 003e 20a1 6e3f 6e47 c73e
00000060: 6739 c4be 82c6 4cbe 1240 2abf 0426 cf3e
00000070: 4871 0540 55db b33e e8c9 e0be 2e85 29bf
00000080: 7a12 123e e5a4 143f c8cd 8abe 79ef f1be
00000090: c842 12be df60 003e ca62 833f 632c 31be
000000a0: 0c92 63bd d14a 12bd 3f80 c4be 6c18 5bbd
000000b0: ceac 4d3e 8aa8 01bf b6b8 983b b85b 0c3f
000000c0: 8797 bfbf bd1a b73f 4b5c 4bbe b25a 33bf
000000d0: 9bd4 ea3e 151c 5f3f 797e a93d 0260 a13d
000000e0: ed38 eebd ef2c 3d3e cad6 be3f d5b2 e7bd
000000f0: c766 a63f ff1a 81bf c81e e53f d045 6d3f
00000100: 0a4c 74bf cda8 f4bd 8823 7dbf 35f3 033f
00000110: 5b37 24bf e6e5 453e 1b1a 1b3e 1952 303f
00000120: dcde 27be e6ef 8dbe 1a76 9bbf d195 af3e
00000130: 06e4 2e3e 4ac7 593d 97a2 113f d7a0 2fbf
00000140: e9a1 4abf 48f8 fc3e 1f9d 4abf c99a 04bf
00000150: 222a ebbe 6ae8 603f 8af2 643f 7d9b d3be
00000160: 394f 0b3f 33b8 663f a3e4 e4be 6125 ee3e
00000170: 9bf6 883e c8c8 04bf 7596 2fbe 3e43 9fbe
00000180: 7def 433f b022 223e 12f7 28be f236 7bbf
00000190: 5866 6abe 5670 05bf 7baf 5dbf f713 86be
000001a0: 93cd fe3e 1355 023f 2cb9 083f fbbb 053e
000001b0: 94dd 283f 8a03 2c3f 24e1 1f3f 1220 0cbf
000001c0: da84 a4be 68ea 91be 3210 0bbf 7c0c 1c3f
000001d0: dbc6 14bf 2c74 10bf 634e cdbe bab0 5e3e
000001e0: b6c0 05bd abeb e33e e268 0ebf 62f6 9b3e
000001f0: 733f 8cbe f1ef 773d 43cb 08bf ef44 b63d
00000200: 672a f33d f8de 783e a676 a43e f40a 723d
00000210: 4532 c5bc f659 693f b252 043f 1ab1 66be
00000220: ab80 9d3e 5728 70bf bf23 79be 72aa 183d
00000230: 2d2b 1fbe b4db 0d3f 4973 57bd 0b76 22be
00000240: 9c87 1abe 70c8 213f c00e 2a3e 44a9 dc3f
00000250: c642 e9be 4936 9b3f 5f55 93be bcf6 01bc
00000260: a801 97bd 47a0 223e c674 533e 96b8 a63d
00000270: 232a d73e a9e6 0dbf 6ab3 1e3e 131d fc3d
00000280: fe46 9f3e 943c acbf 88d1 1f3f 0b5c 443e
00000290: 7b40 153e 39b3 d8be 3597 94be 6d38 fcbf
000002a0: ff0b e9bf 6d6c 123f 1075 bb3f f324 513e
000002b0: deba 583f 907c 8abd c243 88bc a5be d63f
000002c0: 6474 8a3d 6ac8 05bf 96ed aa3c 1655 d63e
000002d0: 1103 6cbc 7577 af3e 3cbc 033f 6e23 e5bd
000002e0: 944a 883f 65e1 e63e 1a67 c73e fa29 12bf
000002f0: cf7f cbbf 2c0a 2a3e 3192 46be 0c47 0dbf
00000300: ca7f 74bf f91b 173e c06a 253f 1405 d0be
00000310: 55d9 183e a6d0 44bf cee7 e53e 14f8 eabe
00000320: b0ed fbbe 68a3 103f 309b b2bf b634 1fbf
00000330: 670b 2cbf 37a7 f23c a35c 003f 28d6 c73b
00000340: 1384 68bf e30a 043f 3c0d 2cbf 5b7d 463f
00000350: 03e1 923e 328a 39be 18df e9be 3654 f6be
00000360: 585c 4c3e 7a26 c53c b2dd 133e 8bca 83bf
00000370: 110e 84bd 3807 913f 9609 22be 0a89 04be
00000380: 93a7 8c3f 4fc3 e13e f15a 3d3e bba8 b03f
00000390: 77c1 c73f 74fc a53e 17a0 a73e aedd 67bf
000003a0: 169d 203f e0ba e43d 0ee2 ec3e bb85 e73e
000003b0: 55f0 e7be 3582 e53e 14e8 91bd e5a9 733d
000003c0: 87e9 1fbe 0194 22c0 3d59 2dbf 1111 6abe
000003d0: 22db 0bc0 f7d8 49bf 8a4f 72bd 45d1 9a3f
000003e0: 7697 853f 1b48 ab3f 71d1 39be e73f d73e
000003f0: 032e ac3e 286a 603e a99d abbf a0b2 abbe

lstm_1.weight_hh f4 [40, 10]
-0.18698654 0.8370578 -1.6290427 0.2799854 -0.42599738 -1.5525124 0.35234866 -0.76236147
-1.322896 -0.25169128 -0.9890641 0.8514274 -1.3753521 -3.9506469 1.3842316 -2.0514438
-0.2602645 -1.5637429 -0.7342985 0.7636426 -1.2138929 1.1214767 -0.4958628 1.1462018
1.1575153 -0.6196427 0.41366982 -0.6103008 -1.4959921 0.8011267 0.27746233 0.14385861
-1.1300327 0.11376694 0.8802644 -1.1156551 1.4615673 -0.79444355 -0.60889554 -0.3153083
-0.13490942 1.1599643 -1.4298286 1.0191919 0.18685247 -0.5491801 0.019238265 -0.30671453
0.4800661 -1.2303854 0.1811309 -1.1115485 -0.55036503 0.40767163 -0.6646784 1.5510902
0.3379398 1.9213871 -0.35403332 1.1134616 -0.122056186 -0.24749759 -1.2656419 0.705956
1.399327 -0.3359153 0.22584097 0.1893213 -0.6287438 -1.9701939 -0.028481483 0.17460077
-0.98296934 -0.16888715 3.0100186 -0.06441025 0.74364203 1.9916838 0.5863342 -0.2784593
-0.68305767 0.8151288 -1.8235244 1.0946972 0.47419712 1.312442 -1.5159314 -0.36468074
-1.7255528 -0.047303714 -0.06772521 1.0291367 -0.24203064 -0.9389253 0.8328841 -1.7249463
-0.2605749 3.584239 -0.83930385 0.80898345 -0.028106192 2.9744778 -0.54617894 -1.9041535
-0.3163058 0.6493451 0.57859594 0.14626932 -0.94537807 -1.6203797 -1.4221761 0.85507053
-0.5200884 0.44180226 -0.22701804 0.7763171 0.96945584 -0.3644616 0.71407384 -0.3758494
-0.4414092 0.109657586 0.8746416 0.6613945 1.3738494 0.87467027 -1.1266676 1.218679
1.4662427 -0.79679906 0.10444958 0.0222358 0.37216824 -0.43125612 0.50189906 0.5099308
0.20505571 -0.364575 -0.62410027 0.49198574 0.5240295 0.4629506 -1.2830297 0.9538805
-1.2258291 -1.8965089 -0.076623045 -0.552363 0.8211352 -1.6010222 0.103886575 -0.42500067
1.39576 -1.7814115 -1.9293422 0.49641153 0.2438657 0.28455675 0.05492533 2.6365712
-0.16403554 -0.42511407 0.6484794 1.0871265 0.88749677 1.0351596 -0.46852577 2.0655587
0.34243193 -0.25503275 -1.8896257 -0.006946034 -0.6380683 0.48551404 1.3413787 -0.9182362
-0.89695406 -0.05802353 -1.1510988 -1.023891 -0.4007306 -0.11547136 -2.2435296 1.6766846
0.561221 -2.898531 0.4266319 0.3227472 -1.1394166 -0.441214 -0.9389465 -0.3521829
1.4022527 -2.812997 0.523859 -0.41976634 -0.30439568 0.3237531 -2.053289 0.6857903
-1.5607139 0.11983148 -0.97047985 -0.45562574 0.47016722 0.68761414 -0.6153347 -1.5882004
-0.42592746 0.9874528 -0.84659296 -0.4889112 -0.54024357 0.6762123 1.1193385 0.00039857757
-0.33662602 -0.35877463 -0.36296126 -0.11056642 0.061137766 -1.9600927 -0.51298827 -2.7366405
-0.68214357 -0.016677683 0.58092356 0.61653733 -0.030643294 -0.85476345 0.8981678 -0.9376035
-0.63864607 0.50040686 1.037085 -0.6212242 -0.8054563 0.72974414 0.14552063 -0.2220872
-0.86348414 0.8886748 -0.68969935 0.4970608 0.34406313 0.34243515 0.51101226 -0.81528497
-0.87991494 0.68667066 0.5083412 0.048018523 0.13137284 0.8557151 0.48931503 0.26274022
00000000: 6679 3fbe 6c49 563f 7984 d0bf 3f5a 8f3e
00000010: 541c dabe bab8 c6bf 0b67 b43e 1f2a 43bf
00000020: a854 a9bf aedd 80be 4e33 7dbf 25f7 593f
00000030: 8a0b b0bf 66d7 7cc0 802e b13f db4a 03c0
00000040: 6341 85be ba28 c8bf fdfa 3bbf 157e 433f
00000050: d860 9bbf 8c8c 8f3f bbe1 fdbe beb6 923f
00000060: 7629 943f e7a0 1ebf 88cc d33e ac3c 1cbf
00000070: ab7c bfbf a416 4d3f 8b0f 8e3e ac4f 133e
00000080: e9a4 90bf a4fe e83d 0259 613f c9cd 8ebf
00000090: a314 bb3f a760 4bbf 94e0 1bbf 1770 a1be
000000a0: b225 0abe b679 943f a004 b7bf e174 823f
000000b0: 4156 3f3e 1197 0cbf 9199 9d3c b009 9dbe
000000c0: 39cb f53e 457d 9dbf 617a 393e 3947 8ebf
000000d0: b9e4 0cbf 56ba d03e 5d28 2abf 208a c63f
000000e0: 7206 ad3e 03f0 f53f db43 b5be e985 8e3f
000000f0: 98f8 f9bd 0270 7dbe 8e00 a2bf 88b9 343f
00000100: 261d b33f 17fd abbe db42 673e 71dd 413e
00000110: 5bf5 20bf 502f fcbf 0052 e9bc 8bca 323e
00000120: e1a3 7bbf c1f0 2cbe 25a4 4040 85e9 83bd
00000130: 535f 3e3f 7fef fe3f 001a 163f 3892 8ebe
00000140: dedc 2ebf 48ac 503f 3f69 e9bf 0a1f 8c3f
00000150: f7c9 f23e 19fe a73f 0a0a c2bf 6fb7 babe
00000160: eade dcbf 8ac1 41bd 84b3 8abd c0ba 833f
00000170: e1d6 77be 695d 70bf e437 553f 0acb dcbf
00000180: 136a 85be 2c64 6540 9edc 56bf 8a19 4f3f
00000190: f53e e6bc d85d 3e40 62d2 0bbf 4dbb f3bf
000001a0: d5f2 a1be 7b3b 263f dd1e 143f a0c7 153e
000001b0: 4c04 72bf 9a68 cfbf de09 b6bf e7e5 5a3f
000001c0: 8324 05bf e833 e23e 6b77 68be b8bc 463f
000001d0: 422e 783f b69a babe 8bcd 363f 556f c0be
000001e0: 6300 e2be 2894 e03d 83e8 5f3f 2651 293f
000001f0: 4cda af3f 64ea 5f3f a536 90bf acfd 9b3f
00000200: d7ad bb3f 06fb 4bbf a9e9 d53d da27 b63c
00000210: d68c be3e 9acd dcbe 757c 003f d38a 023f
00000220: 20fa 513e 93a9 babe 09c5 1fbf 8ee5 fb3e
00000230: cc26 063f dc07 ed3e 513a a4bf 8331 743f
00000240: f8e7 9cbf cec0 f2bf 8bec 9cbd a967 0dbf
00000250: eb35 523f 4cee ccbf 7cc2 d43d b099 d9be
00000260: 44a8 b23f 4b05 e4bf aff4 f6bf a729 fe3e
00000270: eeb7 793e 6cb1 913e 62f9 603d 95bd 2840
00000280: eff8 27be 8da8 d9be bf02 263f f626 8b3f
00000290: fd32 633f 1c80 843f 9ce2 efbe 1d32 0440
000002a0: 3d53 af3e a793 82be 41df f1bf 8e9b e3bb
000002b0: 7258 23bf 4c95 f83e 4cb2 ab3f 8711 6bbf
000002c0: c89e 65bf 15aa 6dbd 3557 93bf dc0e 83bf
000002d0: 902c cdbe 407c ecbd fd95 0fc0 9a9d d63f
000002e0: 2eac 0f3f 8881 39c0 7f6f da3e 1f3f a53e
000002f0: 67d8 91bf cde6 e1be cc5e 70bf 5151 b4be
00000300: 047d b33f 2508 34c0 a01b 063f 9deb d6be
00000310: c0d9 9bbe f7c2 a53e 1669 03c0 f48f 2f3f
00000320: 79c5 c7bf 356a f53d 5e71 78bf c747 e9be
00000330: c2b9 f03e 7b07 303f 9386 1dbf 274a cbbf
00000340: 2a13 dabe b5c9 7c3f 51ba 58bf 9252 fabe
00000350: 674d 0abf 401c 2d3f 7c46 8f3f 2df8 d039
00000360: 3f5a acbe 4fb1 b7be 0fd6 b9be a670 e2bd
00000370: 986b 7a3d 51e4 fabf 3353 03bf 1e25 2fc0
00000380: f6a0 2ebf a39f 88bc 68b7 143f 64d5 1d3f
00000390: a507 fbbc c7d1 5abf 53ee 653f c806 70bf
000003a0: 4f7e 23bf aa1a 003f 34bf 843f 8d08 1fbf
000003b0: 6232 4ebf 83d0 3a3f 5c03 153e d46a 63be
000003c0: 4c0d 5dbf 3180 633f 2390 30bf c17e fe3e
000003d0: 0b29 b03e a953 af3e b3d1 023f 84b6 50bf
000003e0: 1b42 61bf a6c9 2f3f a622 023f 12af 443d
000003f0: 9a86 063e 2510 5b3f 8087 fa3e e385 863e

lstm_1.bias_ih f4 [40]
-0.06825571 -0.22707745 -0.009183017 0.2856644 -0.2921204 -0.40993157 -0.94698286 0.06964688
-0.82936996 0.48628822 0.9453272 -0.8524836 0.21603794 0.21232034 -0.96889865 0.45348048
0.033965167 -1.0899312 -0.87408566 -0.044348743 1.0717642 -0.62267566 0.75462466 -0.38724726
-0.6103635 0.08528935 -0.069867514 0.18532418 0.55116904 0.38815358 -0.13879417 -0.18093285
-0.1296136 -0.39780882 -0.86171263 -0.059780266 -1.2964578 -0.3311619 -0.62515676 -0.10745483
00000000: a6c9 8bbd fe86 68be 5d74 16bc 9b42 923e
00000010: ce90 95be 8de2 d1be 786d 72bf 06a3 8e3d
00000020: 9751 54bf c5fa f83e f700 723f 5d3c 5abf
00000030: 0d39 5d3e 816a 593e be09 78bf 982e e83e
00000040: 0f1f 0b3d de82 8bbf 14c4 5fbf 07a7 35bd
00000050: 922f 893f ac67 1fbf 152f 413f 4645 c6be
00000060: c840 1cbf 2fac ae3d b316 8fbd 9fc5 3d3e
00000070: 6a19 0d3f 11bc c63e 0f20 0ebe 7646 39be
00000080: 6db9 04be 99ad cbbe 3399 5cbf 27dc 74bd
00000090: 54f2 a5bf 0d8e a9be 460a 20bf 4711 dcbd

lstm_1.bias_hh f4 [40]
0.18479213 -0.28248796 -0.16658506 0.7004628 -0.34700757 -0.27761552 -1.3110912 0.15534683
-0.99661773 0.12285615 1.0619766 -1.247667 0.27154028 0.08957929 -0.6724103 0.19059476
-0.22208114 -0.9831311 -1.0890968 -0.20221739 1.1105288 -0.13545382 0.6698794 -0.26525575
-0.26805514 0.31612554 -0.19504109 -0.26392472 -0.0011970961 0.082925886 0.1714486 0.21121553
-0.4456733 -0.4095519 -0.83278733 -0.041818634 -0.8975471 -0.80093694 -1.236102 -0.28732613
00000000: 263a 3d3e 43a2 90be 4695 2abe 8851 333f
00000010: faaa b1be 9f23 8ebe d6d1 a7bf 3d13 1f3e
00000020: 5722 7fbf 019c fb3d d9ee 873f 8db3 9fbf
00000030: 5407 8b3e 5975 b73d 1523 2cbf 462b 433e
00000040: 3d69 63be 7bae 7bbf 8667 8bbf 1312 4fbe
00000050: cf25 8e3f 68b4 0abe 377d 2b3f 9acf 87be
00000060: 863e 89be 35db a13e dab8 47be 2421 87be
00000070: e1e7 9cba 0cd5 a93d 3990 2f3e e248 583e
00000080: 4a2f e4be c9b0 d1be 8d31 55bf 044a 2bbd
00000090: a6c5 65bf 340a 4dbf 9738 9ebf 691c 93be

fc_1.weight f4 [20, 10]
0.101171724 0.12587588 0.06585668 -0.02015408 -0.20203806 0.022802861 -0.31005946 0.06869742
-0.031809594 0.0655973 0.18701378 -0.2993601 0.7452805 -0.36615708 -0.14236353 0.08630715
0.17831802 0.1345297 0.43397474 0.5390064 0.047837153 -0.121917896 0.10891579 0.46016496
-0.26740882 -0.14382641 0.8346708 0.33729053 0.03160734 -0.23626134 0.43076685 -0.53895265
-0.4078934 -0.0042958916 0.40418795 0.39201596 -0.07845028 -0.30359164 -0.11268994 0.21003848
0.21937303 -0.28489637 -0.24893971 0.23734735 0.09538898 0.1266172 0.18945913 -0.006940707
-0.12648226 0.1294814 -0.5103384 0.43467557 -0.54636073 0.49107298 0.2532192 1.0983676
-0.621373 0.30477178 -0.57937145 -0.5464899 0.41012713 0.109402746 0.15622984 -0.40349072
0.38786235 0.19876432 -0.52494735 0.40402454 -0.21555662 -0.074487664 -0.18723203 -0.12580805
0.007949207 0.2639211 0.26924086 -0.025358958 0.21461047 -0.5173033 0.1373135 0.37445563
0.34815 -0.35057557 0.56460154 -0.11868916 -0.20018655 0.018248899 0.73040205 0.48684534
0.3074445 0.35197127 -0.10774667 -0.07634427 0.30672768 -0.33560914 0.09402087 0.42256325
-0.269773 -0.16072723 0.014091709 0.011748286 -0.56515545 0.23112966 -0.2557546 0.45326173
0.51888335 0.9508577 -0.26543278 0.10557762 -0.5270871 -0.37316743 0.0028340418 -0.082163185
-0.09315399 -0.47139105 0.3160073 0.3565558 -0.56206185 -0.15259191 -0.19079083 0.13445106
-0.42560616 -0.26704344 -0.17133488 0.08171928 -0.1828377 -0.124193616 0.21026275 -0.16604237
0.064647846 0.13721626 -0.09085217 0.42363876 0.05060064 0.17615867 -0.3882413 -0.2015234
0.73011494 0.20479469 -0.3100175 -0.34879017 -0.15390202 0.27627847 0.064624965 -0.14573097
-0.20782787 -0.13270217 0.148946 0.09759606 -0.01752443 -0.1720893 0.27270332 0.18554308
0.019257352 0.727787 -0.16753615 -0.1655241 0.57486147 -0.33874002 0.20227946 -0.051493887
0.3235199 0.023521867 -0.1716067 0.20668042 0.12867327 0.21395926 0.06727312 0.24494593
-0.58629686 -0.25464383 -0.33291724 0.18979543 0.34363607 0.4594528 0.010619176 -0.16606478
0.2851281 -0.46014997 0.2460467 0.20368913 -0.79742795 0.44442615 0.17976145 0.048603356
0.26408052 0.82969105 -0.1923842 0.02510934 -0.15272138 -0.4354296 0.011840181 0.34580132
0.28127933 0.34181976 -0.50248396 -0.30001977 0.6448106 0.2244271 0.12685667 -0.30968475
00000000: 1f33 cf3d 9be5 003e dedf 863d 2b1a a5bc
00000010: 11e3 4ebe 11cd ba3c 1dc0 9ebe 3cb1 8c3d
00000020: c74a 02bd e157 863d 8a80 3f3e ba45 99be
00000030: b4ca 3e3f f178 bbbe bfc7 11be cec1 b03d
00000040: 0099 363e 27c2 093e f031 de3e 53fc 093f
00000050: e4f0 433d 17b0 f9bd 3e0f df3d be9a eb3e
00000060: cfe9 88be 3b47 13be fcac 553f 58b1 ac3e
00000070: b376 013d 7eee 71be 798d dc3e cdf8 09bf
00000080: 67d7 d0be 8dc4 8cbb b9f1 ce3e 51b6 c83e
00000090: 8aaa a0bd 5d70 9bbe fcc9 e6bd 5414 573e
000000a0: 53a3 603e f0dd 91be 0dea 7ebe 2f0b 733e
000000b0: 4c5b c33d f0a7 013e 9301 423e df6e e3bb
000000c0: 9184 01be c696 043e 8aa5 02bf cc8d de3e
000000d0: 4cde 0bbf eb6d fb3e f2a5 813e 4f97 8c3f
000000e0: 4d12 1fbf 0c0b 9c3e b051 14bf c3e6 0bbf
000000f0: 2ffc d13e 8c0e e03d b7fa 1f3e 5696 cebe
00000100: e595 c63e e088 4b3e f362 06bf 4edc ce3e
00000110: e0ba 5cbe fd8c 98bd c1b9 3fbe d3d3 00be
00000120: 643d 023c ab20 873e f0d9 893e 97bd cfbc
00000130: d9c2 5b3e fd6d 04bf e99b 0c3e a6b8 bf3e
00000140: b840 b23e a47e b3be ba89 103f 4d13 f3bd
00000150: b4fd 4cbe b77e 953c a1fb 3a3f cb43 f93e
00000160: 5e69 9d3e 9435 b43e 49aa dcbd 625a 9cbd
00000170: 690b 9d3e f6d4 abbe 048e c03d 365a d83e
00000180: b01f 8abe ae95 24be e9e0 663c e27b 403c
00000190: 07ae 10bf 41ad 6c3e 44f2 82be ec11 e83e
000001a0: 8ad5 043f 696b 733f cee6 87be 1439 d83d
000001b0: 2eef 06bf cd0f bfbe 55bb 393b 2c45 a8bd
000001c0: 85c7 bebd 2b5a f1be b5cb a13e 7b8e b63e
000001d0: 49e3 0fbf 0e41 1cbe ac5e 43be 8aad 093e
000001e0: 0de9 d9be ebb9 88be 6972 2fbe 705c a73d
000001f0: ce39 3bbe 3959 febd 1e4f 573e 0307 2abe
00000200: 1766 843d 6b82 0c3e b410 babd 2ee7 d83e
00000210: 9e42 4f3d f062 343e 90c7 c6be 265c 4ebe
00000220: d0e8 3a3f b3b5 513e 9dba 9ebe a094 b2be
00000230: 7e98 1dbe 5f74 8d3e 185a 843d 803a 15be
00000240: d4d0 54be 14e3 07be 4d85 183e 71e0 c73d
00000250: 658f 8fbc 2d38 30be c59f 8b3e 01ff 3d3e
00000260: 98c1 9d3c 4050 3a3f 998e 2bbe 267f 29be
00000270: 1f2a 133f 556f adbe 5922 4f3e 41eb 52bd
00000280: 66a4 a53e eeb0 c03c abb9 2fbe 08a4 533e
00000290: edc2 033e 2318 5b3e 7dc6 893d 1bd3 7a3e
000002a0: 8d17 16bf ad60 82be 2174 aabe bc59 423e
000002b0: 11f1 af3e 663d eb3e 0dfc 2d3c e30c 2abe
000002c0: 4ffc 913e c798 ebbe abf3 7b3e e293 503e
000002d0: 3d24 4cbf d38b e33e 6313 383e 5014 473d
000002e0: 9035 873e a266 543f 5d00 45be 1ab2 cd3c
000002f0: fe62 1cbe a1f0 debe 52fd 413c df0c b13e
00000300: d803 903e 0003 af3e caa2 00bf 319c 99be
00000310: 4f12 253f 38d0 653e b7e6 013e 008f 9ebe

fc_1.bias f4 [20]
0.0007012295 0.045390118 0.19001727 -0.25689408 -0.08963443 -0.37013313 -0.12084926 -0.02934676
0.077431865 -0.13989389 -0.27767524 -0.2316143 0.025769334 0.18215951 0.09876143 0.14243299
-0.12732449 0.09304593 -0.23164223 0.27050108
00000000: b7d2 373a fdea 393d e393 423e 9f87 83be
00000010: 4292 b7bd 1782 bdbe d17f f7bd 9e68 f0bc
00000020: 9994 9e3d 5840 0fbe 732b 8ebe 4d2c 6dbe
00000030: 361a d33c 0688 3a3e 6f43 ca3d f4d9 113e
00000040: 5a61 02be dd8e be3d 9f33 6dbe 1e7f 8a3e

attention_2.in_proj_weight f4 [60, 20]
-0.16379109 -0.94052374 -0.35414568 0.5614341 -0.0074021076 -0.17639661 -0.050729163 0.09714603
-0.7910399 -0.45664117 -0.19936761 0.084349416 -0.14249897 -0.07905368 0.22621118 -0.12030294
0.34360248 -0.5678474 -0.49787226 -0.28380206 0.06441498 0.33254415 0.37416536 -0.73767906
-0.08770957 0.704757 0.2947052 -0.6949989 0.24969548 0.16527642 0.71252096 -0.18940398
-0.38570035 0.5873079 -0.08172139 0.2388997 0.9451722 0.05454189 0.41216975 0.022939747
-0.0067166844 0.37324223 -0.007138905 0.23219867 0.13725625 -1.0845549 -0.19882695 0.27634588
0.34321958 -0.184641 -1.1156129 -0.16169874 -0.24877559 -0.16899256 -0.08839797 0.4234728
-0.44531423 -0.0046604886 -0.80058956 0.10187213 -0.09102789 -0.08898359 0.099850915 0.07438751
0.10584737 -0.3557849 -0.18261689 0.14641806 -0.14801405 -0.21018592 -0.43426764 -0.21337056
0.008000686 0.01837994 -0.057540514 0.33703277 -0.097476415 0.106921725 -0.36028734 0.16945705
0.11578328 -0.0067200726 0.74229795 -0.48567966 -0.020880163 0.4123236 0.27805647 -1.491825
0.26609546 0.17772129 0.44570422 -0.45784318 -0.1481783 0.7715495 0.2360902 0.08884647
0.8006671 -0.27944037 0.35860425 0.6029029 0.67201144 0.11208319 -0.7253413 -1.1881088
-0.6630011 0.52023286 -0.004735431 -0.42459068 -0.38093233 0.31229845 0.4224669 0.14600162
-0.5875487 0.5199141 0.24294837 0.19600989 0.69787204 0.21491218 0.5797073 -0.46699792
0.25962347 0.7508227 0.26932743 0.5735365 0.7522731 0.3073736 1.071098 -0.5687225
0.7269283 0.26130107 0.30097014 0.28761837 -0.5592008 -0.4602117 -0.5952078 -0.585381
0.6027004 -0.84164923 -0.15379053 -0.3914709 0.059113774 -0.08191253 -0.9578732 1.1930585
0.9612662 0.5021077 0.42518157 0.5180385 -0.13914259 0.45021537 -0.1561205 0.6302751
-0.23846398 -1.1099232 -1.0021651 0.25820485 0.18604629 -0.05394037 -0.24003837 -0.8520134
0.018561091 -0.48911446 -0.06148343 -0.2588448 0.026524004 0.16982833 -0.06440727 0.09990929
-0.47987407 -0.15355723 0.44069532 -0.04537859 -0.023560783 0.18414596 0.060757272 0.17184901
0.17584167 0.14388038 0.17149541 0.059045587 0.07088926 -0.7702626 -0.13669871 -0.53322744
-0.19823639 0.45493847 -0.016377838 -0.03894567 -0.8010647 -0.16505624 0.58818865 0.049339835
-0.09439295 0.32120362 0.2698661 0.08254764 0.28196913 0.12375661 0.5616959 0.19203134
0.40018886 -0.45778894 0.1562317 -0.68558395 -0.20776421 0.5857777 -0.0048357276 -0.2523869
-0.34324983 -0.12817392 0.7205523 -0.11750083 -0.07797297 0.6029816 0.16700935 0.20750819
0.30915928 0.22692615 0.5574725 0.36778453 0.15181574 -0.52096874 0.08873514 -0.29060975
0.039402444 0.38286403 -0.31661874 -0.047762748 -0.24152899 -0.32182264 0.52479243 -0.054399215
-0.009904186 0.21007358 -0.15237471 0.15606366 0.5855054 0.13674451 0.08425615 -0.008292284
0.45207533 0.36285412 -0.8515405 0.20953082 -0.03905748 -0.57932025 0.11983705 0.3946672
-0.12902366 0.77263755 -0.024893448 0.28976646 -0.467524 -0.34919396 -0.16151431 -0.15420069
00000000: dab8 27be 2ac6 70bf 9552 b5be 25ba 0f3f
00000010: 618d f2bb 50a1 34be 62c9 4fbd 7ff4 c63d
00000020: 9781 4abf dfcc e9be 0627 4cbe 63bf ac3d
00000030: 40eb 11be e5e6 a1bd e7a3 673e 6361 f6bd
00000040: aaec af3e 725e 11bf 1de9 febe 814e 91be
00000050: 00ec 833d 3a43 aa3e 9a92 bf3e 89d8 3cbf
00000060: 13a1 b3bd f46a 343f 9ae3 963e 73eb 31bf
00000070: 2cb0 7f3e 393e 293e c667 363f 1ef3 41be
00000080: 847a c5be cf59 163f 8b5d a7bd 1fa2 743e
00000090: cef6 713f 5167 5f3d ea07 d33e 23ec bb3c
000000a0: a217 dcbb 9b19 bf3e 7aed e9bb 7dc5 6d3e
000000b0: e78c 0c3e b2d2 8abf 4b99 4bbe 357d 8d3e
000000c0: 7aba af3e 8812 3dbe 67cc 8ebf 5b94 25be
000000d0: 07bf 7ebe 630c 2dbe ff09 b5bd 6dd1 d83e
000000e0: 3a00 e4be 03b7 98bb 70f3 4cbf 56a2 d03d
000000f0: d56c babd 073d b6bd a37e cc3d 7b58 983d
00000100: 82c6 d83d 7029 b6be ecff 3abe 9eee 153e
00000110: ff90 17be fa3a 57be 5458 debe d07d 5abe
00000120: 4f15 033c 8791 963c 9aaf 6bbd 8f8f ac3e
00000130: b7a1 c7bd c7f9 da3d 9577 b8be 2686 2d3e
00000140: c91f ed3d 0e34 dcbb 3d07 3e3f 01ab f8be
00000150: e00c abbc 141c d33e 6b5d 8e3e 1ff4 bebf
00000160: aa3d 883e 92fc 353e 5833 e43e 6c6a eabe
00000170: 0dbc 17be 4584 453f a1c1 713e 23f5 b53d
00000180: 85f8 4c3f cf12 8fbe fa9a b73e d857 1a3f
00000190: f108 2c3f df8b e53d f8af 39bf f313 98bf
000001a0: 71ba 29bf fb2d 053f ad2b 9bbb f363 d9be
000001b0: 9009 c3be 95e5 9f3e 954d d83e 7381 153e
000001c0: 9769 16bf 1719 053f 75c7 783e d1b6 483e
000001d0: bea7 323f f011 5c3e b367 143f 5a1a efbe
000001e0: 5eed 843e eb35 403f 49e5 893e 4ad3 123f
000001f0: f894 403f 1360 9d3e bd19 893f cc97 11bf
00000200: f917 3a3f 41c9 853e c218 9a3e b742 933e
00000210: c927 0fbf dea0 ebbe 8a5f 18bf 87db 15bf
00000220: 934a 1a3f 5376 57bf 447b 1dbe e06e c8be
00000230: 4921 723d c2c1 a7bd 2e37 75bf 24b6 983f
00000240: 8b15 763f 218a 003f 66b1 d93e 2c9e 043f
00000250: 657b 0ebe a182 e63e 0dde 1fbe b559 213f
00000260: e72f 74be f711 8ebf f246 80bf 6d33 843e
00000270: eb82 3e3e 94f0 5cbd 9ecc 75be 8d1d 5abf
00000280: 6e0d 983c 366d fabe 0dd6 7bbd 4e87 84be
00000290: de48 d93c 7ae7 2d3e f5e7 83bd 3e9d cc3d
000002a0: 0eb2 f5be 1b3e 1dbe d1a2 e13e e6de 39bd
000002b0: 8b02 c1bc c290 3c3e 9edc 783d 30f9 2f3e
000002c0: d70f 343e 6155 133e 7e9c 2f3e c9d9 713d
000002d0: 632e 913d ee2f 45bf bffa 0bbe 9881 08bf
000002e0: 7bfe 4abe b2ed e83e d12a 86bc 7f85 1fbd
000002f0: 9412 4dbf 8104 29be 8893 163f 9118 4a3d
00000300: 1751 c1bd cd74 a43e e42b 8a3e bd0e a93d
00000310: 425e 903e 1b74 fd3d 4dcb 0f3f dda3 443e
00000320: 8ee5 cc3e 5063 eabe 34fb 1f3e 6e82 2fbf
00000330: 24c0 54be 87f5 153f 0675 9ebb db38 81be
00000340: 71be afbe 0640 03be 1e76 383f 46a4 f0bd
00000350: 4bb0 9fbd 015d 1a3f 8004 2b3e 077d 543e
00000360: 204a 9e3e 545f 683e 85b6 0e3f 414e bc3e
00000370: 9675 1b3e 355e 05bf c5ba b53d cdca 94be
00000380: 7564 213d c106 c43e da1b a2be dfa2 43bd
00000390: 6053 77be f0c5 a4be cc58 063f b6d1 5ebd
000003a0: 2b45 22bc 871d 573e 1e08 1cbe 27cf 1f3e
000003b0: afe3 153f c106 0c3e 7d8e ac3d 5cdc 07bc
000003c0: 6b76 e73e 04c8 b93e 8ffe 59bf 3f8f 563e
000003d0: bcfa 1fbd 554e 14bf 216d f53d d211 ca3e
000003e0: c71e 04be 93cb 453f 58ed cbbc 455c 943e
000003f0: 4e5f efbe 8dc9 b2be 0264 25be c9e6 1dbe

attention_2.in_proj_bias f4 [60]
-0.33977452 0.067724876 -0.4401779 -0.31554818 0.92314124 -0.62403375 0.4593008 -0.4118086
0.3827216 0.9523488 0.9830963 0.37064773 0.40266904 0.19400394 -0.5675883 -0.08366454
0.38735843 -0.53883654 -0.18102552 -0.75562656 8.1244787e-07 -2.6178025e-06 -1.304772e-06 -1.0235326e-06
4.9246305e-06 4.71844e-06 3.092535e-05 4.6910918e-05 -3.3678067e-08 -3.045526e-07 -9.23527e-07 2.1892069e-07
-3.0173005e-05 -1.5454943e-05 4.3064183e-06 -4.077279e-06 -0.000118372816 -0.0001393075 1.8943789e-08 -9.1518274e-07
0.024839932 -0.014499969 -0.021536661 -0.011828493 0.011299255 -0.0056724823 -0.046440683 -0.054436143
0.008954263 0.0017789769 0.0008711514 0.036713704 0.0203251 0.048372954 -0.00032383754 -0.030093519
0.010380329 0.2355839 0.039245572 0.008246572
00000000: edf6 adbe 57b3 8a3d ff5e e1be 888f a1be
00000010: fc52 6c3f adc0 1fbf 7929 eb3e 94d8 d2be
00000020: 16f4 c33e 22cd 733f 33ac 7b3f 8ac5 bd3e
00000030: a32a ce3e f8a8 463e 784d 11bf 5058 abbd
00000040: d853 c63e 31f1 09bf c15e 39be be70 41bf
00000050: fe16 5a35 81ad 2fb6 a01f afb5 5060 89b5
00000060: 413e a536 1753 9e36 d7b5 0138 37c2 4438
00000070: 6da5 10b3 6481 a3b4 4be8 77b5 7610 6b34
00000080: 091c fdb7 3da5 81b7 da7f 9036 8fcf 88b6
00000090: ec3e f8b8 1313 12b9 d5b9 a232 e1aa 75b5
000000a0: 1d7d cb3c 4791 6dbc a76d b0bc 4ccc 41bc
000000b0: 8320 393c 3be0 b9bb 9638 3ebd 6ff8 5ebd
000000c0: e7b4 123c 8f2c e93a fb5d 643a 1c61 163d
000000d0: d380 a63c b822 463d bdc8 a9b9 af86 f6bc
000000e0: 4112 2a3c e83c 713e f7bf 203d a11c 073c

attention_2.out_proj.weight f4 [20, 20]
0.05582193 0.118177675 0.14251207 0.04709197 -0.23323166 -0.047740817 -0.043553546 0.2518651
-0.052106675 -0.0585168 -0.068498954 0.27315477 0.112339705 0.1723336 -0.05292144 0.13584015
-0.18239066 -0.09785918 0.120942496 -0.028422382 0.014848358 -0.1671848 0.032779858 0.16738768
0.090238445 0.06707939 -0.04579482 0.035534292 0.0142186 -0.14922811 -0.033440072 -0.08256795
0.058106776 0.0752348 -0.008275854 0.058482945 0.10632866 -0.06274981 -0.099658184 -0.06547784
0.012744463 0.13746142 -0.027607916 0.10608734 -0.15984933 -0.06675587 0.5976413 0.1539581
0.012209715 0.12676454 -0.11430243 0.04645379 0.149281 -0.03648349 -0.09703494 0.10932256
0.05672484 0.19339402 0.03628183 -0.047263335 0.026515633 0.15318742 0.0035932274 -0.12598486
0.1485096 0.0051375837 -0.10636004 0.028678052 0.17277803 0.1139808 0.045484632 -0.16099042
0.18024455 0.2597625 -0.014862249 -0.081196256 0.07518232 -0.07839963 0.06941251 0.09869896
0.13880675 0.2597195 -0.085504934 0.0069319885 0.12105298 -0.038800873 0.025287049 -0.18454644
0.19137003 0.030807965 0.1286706 0.20781314 0.06469131 -0.04840973 0.3445045 -0.35434523
-0.10329661 0.02439833 -0.01360013 0.22574323 -0.026190972 -0.13159382 -0.02403332 -0.08309295
0.19002986 0.030236823 0.40106267 -0.27665478 -0.0325712 -0.038437326 0.02067729 -0.035957474
-0.007816677 -0.08298245 0.023757305 0.103708446 -0.0230847 -0.9162458 0.05403953 -0.030332401
0.01745598 -0.031377714 -0.11788558 -0.055761408 -0.073105805 -0.16349725 0.124535814 0.10872652
0.15288852 0.17431997 -0.072604276 0.1425442 0.07985345 0.010141338 0.069115244 0.013507291
-0.111229256 0.0126860505 0.3108907 0.12971345 -0.019947182 -0.016676445 -0.013361467 0.18293189
0.03477662 -0.1252704 0.093862936 -0.12818338 -0.041701745 -0.009267894 0.08261219 0.08607411
0.04013078 -0.0648862 -0.0013100345 -0.034695417 0.10641314 0.10192055 -0.06408778 -0.045227796
-0.04221522 -0.04909987 -0.0932585 -0.03153433 0.18898387 -0.046008356 0.09755413 -0.26847085
0.044429675 -0.077280395 0.114257604 -0.15468459 -0.06270926 -0.06847309 0.01158697 0.04359956
0.062063675 0.09032322 -0.09207188 -0.0013245048 0.005750826 -0.15268509 0.06354907 0.16023941
-0.19171256 0.19272758 0.017541898 0.017591095 0.09761338 0.0066940878 0.0019219826 -0.00819579
0.18683286 -0.25422126 -0.0059399013 0.16043632 0.010964197 0.0450789 0.092406206 -0.08104974
0.0017153146 -0.23089269 -0.048368033 -0.08467538 0.091278896 0.026753675 -0.018348185 -0.0065887687
-0.19206625 -0.0038753743 -0.027287427 -0.09027576 -0.23081799 -0.0016637438 -0.13886765 0.034206085
-0.14939114 -0.0072787977 -0.26138416 -0.027035581 0.08511151 -0.31337354 -0.04558143 0.12173569
0.45767164 0.1185156 0.16912556 -0.33064795 0.12228479 -0.1371945 0.115927875 0.079815514
-0.014991599 0.1685743 0.071444705 -0.056429278 0.12103969 0.2848657 0.08274433 -0.039112207
-0.10131115 -0.085429475 -0.12151521 -0.03294018 0.21100804 -0.13481463 -0.18650995 -0.08640141
-0.14212541 0.024374584 -0.0052448134 0.15254617 0.073823325 0.017229438 0.10636065 -0.04673657
00000000: 89a5 643d 2307 f23d afee 113e 82e3 403d
00000010: 48d4 6ebe e08b 43bd 3465 32bd 76f4 803e
00000020: cf6d 55bd 50af 6fbd 2e49 8cbd f1da 8b3e
00000030: 5c12 e63d 3878 303e 27c4 58bd ae19 0b3e
00000040: 9ec4 3abe 656a c8bd b3b0 f73d 0ed6 e8bc
00000050: 8746 733c 7e32 2bbe 2c44 063d ad67 2b3e
00000060: efce b83d eb60 893d 5993 3bbd 688c 113d
00000070: 21f5 683c 41cf 18be 75f8 08bd 6319 a9bd
00000080: 5f01 6e3d b414 9a3d 7397 07bc d08b 6f3d
00000090: d7c2 d93d f982 80bd 9719 ccbd 3f19 86bd
000000a0: 27ce 503c b0c2 0c3e ff29 e2bc 5244 d93d
000000b0: 8baf 23be 4db7 88bd 05ff 183f 31a7 1d3e
000000c0: 420b 483c 90ce 013e 6417 eabd 5446 3e3d
000000d0: 1edd 183e b66f 15bd 41ba c6bd 82e4 df3d
000000e0: 4e58 683d 1509 463e 429c 143d 3397 41bd
000000f0: 5037 d93c 2add 1c3e 5a7c 6b3b 2d02 01be
00000100: e712 183e 2d59 a83b 4bd3 d9bd 3cee ea3c
00000110: b9ec 303e c46e e93d 184e 3a3d acda 24be
00000120: 0792 383e 97ff 843e ca80 73bc 394a a6bd
00000130: 30f9 993d fc8f a0bd 2528 8e3d ae22 ca3d
00000140: 5b23 0e3e f4f9 843e 361d afbd bc25 e33b
00000150: a0ea f73d aaed 1ebd c926 cf3c bef9 3cbe
00000160: 81f6 433e fc60 fc3c 3ac2 033e f8cc 543e
00000170: e17c 843d 4849 46bd e562 b03e bd6c b5be
00000180: 2c8d d3bd 02df c73c 14d3 5ebc 3c29 673e
00000190: 738e d6bc 88c0 06be 86e1 c4bc a32c aabd
000001a0: 3097 423e 37b3 f73c 1658 cd3e b2a5 8dbe
000001b0: 6169 05bd 7570 1dbd 6c63 a93c 2548 13bd
000001c0: 8511 00bc b4f2 a9bd ae9e c23c 1865 d43d
000001d0: 201c bdbc 168f 6abf 8e58 5d3d a87b f8bc
000001e0: d8ff 8e3c eb85 00bd ff6d f1bd 1366 64bd
000001f0: 7fb8 95bd d36b 27be a20c ff3d 02ac de3d
00000200: cf8e 1c3e ef80 323e 8db1 94bd 1bf7 113e
00000210: 358a a33d db27 263c 4b8c 8d3d af4d 5d3c
00000220: 2acc e3bd 27d9 4f3c 112d 9f3e 9ad3 043e
00000230: 4668 a3bc 0a9d 88bc 0eea 5abc 7f52 3b3e
00000240: ee71 0e3d e246 00be 363b c03d 8142 03be
00000250: 73cf 2abd 5dd8 17bc 9430 a93d 9f47 b03d
00000260: 2c60 243d 0ee3 84bd 77b5 abba c81c 0ebd
00000270: 22ef d93d b9bb d03d 7440 83bd c840 39bd
00000280: dee9 2cbd f21c 49bd 50fe bebd 242a 01bd
00000290: fd84 413e 4273 3cbd 76ca c73d 0375 89be
000002a0: e4fb 353d 2f45 9ebd e4ff e93d a365 1ebe
000002b0: b66d 80bd 9f3b 8cbd 46d7 3d3c 7495 323d
000002c0: 7b36 7e3d 61fb b83d 2f90 bcbd 029b adba
000002d0: 6d71 bc3b 7b59 1cbe 0426 823d cd15 243e
000002e0: 4c50 44be 615a 453e 07b4 8f3c 331b 903c
000002f0: 86e9 c73d 145a db3b 09eb fb3a a347 06bc
00000300: 1d51 3f3e 4a29 82be 81a3 c2bb 6b49 243e
00000310: 2da3 333c a7a4 383d 773f bd3d 68fd a5bd
00000320: 68d4 e03a 226f 6cbe 8f1d 46bd 496a adbd
00000330: 6ef0 ba3d 862a db3c ef4e 96bc 99e6 d7bb
00000340: 04ad 44be fef9 7dbb e289 dfbc 7fe2 b8bd
00000350: 8d5b 6cbe fa11 daba 5233 0ebe ae1b 0c3d
00000360: fef9 18be fb82 eebb 25d4 85be b979 ddbc
00000370: f14e ae3d 7f72 a0be 98b3 3abd 9050 f93d
00000380: f053 ea3e 4fb8 f23d 402f 2d3e b04a a9be
00000390: 7370 fa3d b77c 0cbe 986b ed3d 5176 a33d
000003a0: 539f 75bc be9e 2c3e 9a51 923d 6322 67bd
000003b0: a8e3 f73d ebd9 913e dc75 a93d 1f34 20bd
000003c0: 387c cfbd a6f5 aebd f7dc f8bd 48ec 06bd
000003d0: 7e12 583e d90c 0abe 77fc 3ebe 39f3 b0bd
000003e0: 5389 11be 35ad c73c afdc abbb 1035 1c3e
000003f0: af30 973d c024 8d3c 9dd3 d93d d86e 3fbd

attention_2.out_proj.bias f4 [20]
0.045213398 0.025086636 0.023774108 0.045029394 0.030747682 -0.369299 -0.0046800943 -0.028887112
-0.05626724 -0.13436691 -0.03214842 -0.06322598 0.005380138 -0.0025529782 0.14845264 0.041312218
-0.051190548 0.007616995 0.02076647 -0.022116648
00000000: af31 393d 7d82 cd3c ebc1 c23c be70 383d
00000010: 90e2 fb3c c214 bdbe 7a5b 99bb aaa4 ecbc
00000020: 7a78 66bd 7b97 09be 10ae 03bd 9f7c 81bd
00000030: de4b b03b de4f 27bb f803 183e 0037 293d
00000040: 2ead 51bd fc97 f93b 721e aa3c f92d b5bc

lstm_2.weight_ih f4 [40, 20]
-0.067087695 -0.15663788 0.7432707 0.001262965 -0.44156358 -0.2735613 -0.15223466 -0.044056978
-0.37229633 0.25006074 -0.38563737 0.16505685 -0.44607407 0.8144952 0.12953812 0.1081858
-0.6084338 0.23771581 -0.111754596 -0.49138695 -0.15320292 -0.03869014 -0.047740605 0.458485
0.1508523 0.81648 0.034437634 -0.15943868 -0.50650895 0.004441904 0.10812579 0.56099474
0.047806032 -0.09548564 -0.27930817 0.48829567 -0.11282509 -0.24777377 0.4326551 0.14111455
-0.04723267 0.074544355 -0.27336258 0.3697816 0.121390514 0.39502233 0.14121863 -0.2608921
-0.10439102 -0.06253103 0.07143022 0.17572339 0.124037944 0.30403408 0.08396956 0.030887622
-0.4133207 -0.022104442 0.20359285 -0.07961922 -0.12343693 0.044837482 -0.50931925 0.040750418
-0.048955437 -0.70156205 -0.1915483 0.2149621 0.062027793 0.0018619533 0.010623786 0.28361997
0.06753909 0.28986368 0.06396097 0.0757494 0.05669259 -0.00176963 0.3980446 -0.0257637
-0.68256974 -0.13636161 0.42113942 0.08804852 -0.20167783 -0.37125695 0.11424658 -0.020767376
0.10769652 0.48217225 -0.0542797 0.22131878 -0.6100586 0.5294988 -0.29313502 -0.07131157
-0.18705198 -0.13089818 0.47261328 -0.038033497 -0.50748324 0.21537188 0.33853623 -0.6535574
-0.22850972 0.26216552 -0.40256003 0.13915688 -0.11015703 0.62101465 -0.03657891 -0.3616614
-0.15946366 0.3286748 -0.06196775 0.24392661 -0.50299925 0.6988308 -0.8662076 -0.0397967
-0.034630224 0.011238055 -0.041300293 -0.043559887 -0.087407425 -0.2412702 0.04539326 -0.13474832
-0.026807915 0.18582882 0.05390491 0.023931513 -0.03430223 0.03594248 -0.13991198 -0.06880712
-0.055170618 0.017129334 0.15704583 -0.017300524 -0.38083568 -0.09965509 0.14237437 0.22122163
0.34709534 0.6203959 0.05395607 0.032065287 0.1049173 -0.09613846 -0.15509556 0.6240026
-0.033995196 -0.04072892 -0.21728054 0.28405693 -0.0011489087 0.099568374 0.33409777 0.22483082
-0.6549242 -0.13927604 0.4559417 -0.29737148 0.028233018 0.53549296 0.14850071 0.14033449
0.1827685 0.7082573 -0.22496417 0.2656456 -0.27075988 0.3211747 -0.8329021 0.42463136
-0.22924209 0.5170177 -0.29282176 0.22493239 -0.21540421 0.25694522 -0.061361734 -0.88013655
0.010379723 -0.0949498 -0.17744276 0.4135737 0.36833408 0.23702872 -0.03117491 -0.9939423
0.081772655 -0.24839707 0.005294237 -0.60610765 0.0011031133 0.25434655 -0.9475854 -0.277011
-0.08143042 0.03275284 0.8364521 -0.3780345 -0.25159785 0.65578294 0.10602625 0.018778138
0.29962665 -0.2378078 -0.20003152 -0.3207854 -0.0066333874 0.1007313 -0.20242004 -0.1796082
0.23878285 -0.0008597794 0.0081081875 0.45721555 -0.08989686 0.21485266 -0.28586408 -0.48575693
-0.08266443 -0.40893862 0.22699578 0.101136856 0.065847315 0.60005087 -0.438936 -0.99708074
0.5608185 0.13653778 0.31125885 0.3643437 -0.18188752 -0.20267746 -0.80924857 -0.3510145
0.18547791 0.008743097 -0.19652924 -0.0047675134 0.19863138 -0.13117662 0.19598143 -0.21034196
-0.12903133 0.052324764 -0.094123244 -0.27119112 0.14771415 -0.041618876 0.25204477 0.1719813
00000000: 4665 89bd ae65 20be fd46 3e3f 138a a53a
00000010: 9f14 e2be 3a10 8cbe 67e3 1bbe 1775 34bd
00000020: a09d bebe f607 803e 4372 c5be aa04 293e
00000030: d263 e4be c282 503f a4a5 043e 8490 dd3d
00000040: 51c2 1bbf c66b 733e 98df e4bd 1297 fbbe
00000050: 3ae1 1cbe 8d79 1ebd a78b 43bd 8cbe ea3e
00000060: 0679 1a3e d504 513f 7a0e 0d3d e543 23be
00000070: 92aa 01bf 648d 913b 0e71 dd3d 5a9d 0f3f
00000080: 42d0 433d fa8d c3bd 7b01 8fbe e401 fa3e
00000090: d710 e7bd 68b8 7dbe f884 dd3e 5580 103e
000000a0: 0b77 41bd b6aa 983d 2ef6 8bbe 0454 bd3e
000000b0: 979b f83d 5e40 ca3e 9e9b 103e a693 85be
000000c0: f6ca d5bd 4510 80bd 024a 923d d5f0 333e
000000d0: 9b07 fe3d 5baa 9b3e 3cf8 ab3d 0a08 fd3c
000000e0: c59e d3be 6014 b5bc a57a 503e 670f a3bd
000000f0: 80cc fcbd 82a7 373d bf62 02bf e9e9 263d
00000100: 7f85 48bd 9299 33bf 3d25 44be 061f 5c3e
00000110: db10 7e3d c90c f43a 630f 2e3c a336 913e
00000120: ef51 8a3d 0369 943e f8fd 823d 8022 9b3d
00000130: 7d36 683d eef2 e7ba 80cc cb3e 650e d3bc
00000140: e4bc 2ebf 61a2 0bbe 969f d73e c852 b43d
00000150: a284 4ebe 6415 bebe 1cfa e93d 5820 aabc
00000160: fe8f dc3d 48df f63e 6454 5ebd 64a1 623e
00000170: cd2c 1cbf 3c8d 073f cb15 96be cd0b 92bd
00000180: 8e8a 3fbe 2c0a 06be 5efa f13e 03c9 1bbd
00000190: 6cea 01bf 728a 5c3e 9f54 ad3e 8a4f 27bf
000001a0: 74fe 69be 8f3a 863e 591c cebe 247f 0e3e
000001b0: 029a e1bd d1fa 1e3f c4d3 15bd af2b b9be
000001c0: 714a 23be 1048 a83e e5d1 7dbd e6c7 793e
000001d0: 8fc4 00bf 93e6 323f c8bf 5dbf dd01 23bd
000001e0: 6cd8 0dbd d21f 383c 7f2a 29bd da6b 32bd
000001f0: aa02 b3bd 890f 77be 48ee 393d 77fb 09be
00000200: 469c dbbc e949 3e3e 65cb 5c3d 050c c43c
00000210: 7f80 0cbd 6c38 133d 1645 0fbe bfea 8cbd
00000220: 96fa 61bd d152 8c3c 9fd0 203e d4b9 8dbc
00000230: e5fc c2be f817 ccbd 96ca 113e ec87 623e
00000240: 7bb6 b13e 44d2 1e3f 0a01 5d3d e456 033d
00000250: e2de d63d 3ee4 c4bd 5fd1 1ebe a2be 1f3f
00000260: 8c3e 0bbd 5ed3 26bd ca7e 5ebe e96f 913e
00000270: fb96 96ba 81ea cb3d dd0e ab3e 0d3a 663e
00000280: 1da9 27bf 619e 0ebe 3171 e93e 1341 98be
00000290: ee48 e73c 1116 093f 9210 183e d8b3 0f3e
000002a0: aa27 3b3e 5a50 353f 025d 66be b302 883e
000002b0: 0aa1 8abe 0371 a43e 1239 55bf 4869 d93e
000002c0: 70be 6abe 465b 043f bcec 95be ad54 663e
000002d0: ec92 5cbe 538e 833e 7156 7bbd a150 61bf
000002e0: b70f 2a3c 0a75 c2bd 8eb3 35be efbf d33e
000002f0: 4996 bc3e a8b7 723e 8662 ffbc 0173 7ebf
00000300: 6c78 a73d cd5b 7ebe 477b ad3b df29 1bbf
00000310: 5796 903a b639 823e f594 72bf 63d4 8dbe
00000320: fec4 a6bd d827 063d ba21 563f bd8d c1be
00000330: 6fd1 80be 64e1 273f 4a24 d93d 9cd4 993c
00000340: aa68 993e e383 73be 10d5 4cbe fc3d a4be
00000350: e35c d9bb 364c ce3d 3347 4fbe 36eb 37be
00000360: 7e83 743e d262 61ba 34d8 043c 2818 ea3e
00000370: d81b b8bd 5602 5c3e c75c 92be 22b5 f8be
00000380: f84b a9bd 6760 d1be 9571 683e d720 cf3d
00000390: f5da 863d ef9c 193f 38bc e0be af40 7fbf
000003a0: cd91 0f3f 8fd0 0b3e 525d 9f3e 428b ba3e
000003b0: b940 3abe ae8a 4fbe ea2a 4fbf 2cb8 b3be
000003c0: eced 3d3e 353f 0f3c f63e 49be cd38 9cbb
000003d0: 0666 4b3e 2a53 06be 5baf 483e e263 57be
000003e0: ca20 04be 7e52 563d b0c3 c0bd 90d9 8abe
000003f0: 6142 173e 8e78 2abd 030c 813e de1b 303e

lstm_2.weight_hh f4 [40, 10]
0.26222184 2.1994991 -0.23208338 0.35673323 0.9501467 2.45889 -1.051155 -0.88203967
-0.3538974 -0.008763949 0.8577143 0.46988073 0.60299927 -0.75126475 -1.3642309 0.09623266
0.34741387 -0.38850394 0.5247583 0.09042255 -1.4570363 -0.51562065 0.5969704 0.94345456
-0.3292717 0.25449076 0.2510134 -0.22246681 0.40555876 0.24672382 0.3322627 1.2786838
-1.74488 -0.23578048 -0.17521311 -0.4879671 -0.7485359 0.39771023 -0.4213443 0.52857554
0.6900158 0.5745385 1.352814 -0.65948725 -0.23187593 0.42671436 1.0392251 -0.7571665
1.6738036 -0.6739672 -0.21539155 -1.0794156 0.45603257 -0.29153427 0.9025433 -0.58619386
-1.9615514 -1.3019053 -0.41292283 0.7964747 1.9827063 -0.25401747 -0.2239216 -1.6538283
-0.90920365 -1.5322177 -0.9556297 0.029602721 1.0632606 2.0605848 0.9268578 -0.24715927
-1.1204289 -0.82649004 -0.051488742 -1.0758278 0.09014838 -1.2026087 0.9838735 1.9992869
-0.49184605 1.0664601 -0.5286279 2.8323205 0.6026105 1.0125794 -0.76510686 -0.3800548
1.7598408 -0.7949376 -0.635921 -0.71602494 -0.61343646 -0.64390135 -0.7786111 -0.25585923
0.396675 0.77816176 0.43447793 -1.0888201 1.9120865 -0.46883795 -1.22718 -1.2066071
1.6595236 0.11748681 0.07636319 0.2729423 -0.65577054 -0.66919523 0.96685576 0.25626355
-0.9710385 -0.3368325 1.0510914 -0.4693402 -1.6782458 -0.81047994 -0.21610913 1.0535606
0.19074057 -0.20388721 0.4247253 -0.10031911 1.3854105 -0.41038093 -0.9598598 -0.94604707
-0.40099305 -0.30663997 0.4691126 0.96613 -0.361078 0.39321396 1.0863495 0.3209248
-1.0964984 -0.7106687 -0.4497443 0.5326457 -0.26446962 0.35167864 -1.9547957 1.2229819
1.2498343 -0.3833123 -1.5507689 0.9274335 -0.29662377 -1.184303 1.2262335 1.6834561
0.38834915 -0.6992105 0.6804412 0.2057385 0.31815928 0.63677514 0.33994588 -0.28295118
-0.19564648 0.33863506 -0.2119749 0.90267324 2.3336782 0.37256053 -0.9184678 0.504967
0.05088269 -0.023720797 -1.5425376 -0.31182638 -1.1827725 -0.67177916 1.831041 -1.1090169
-0.8973793 -0.16087404 -0.00412189 -2.2878814 -0.23787005 -1.4300603 -0.93047243 1.2577395
2.284012 -1.5341743 0.10806319 -1.2553526 -1.6606739 -1.3473768 0.29084486 0.5927855
-1.0061343 -0.5897442 1.387147 0.42171276 -1.0780643 0.85089415 -1.3119863 1.5594125
-0.88413405 0.7855799 -0.4341301 -0.074914776 0.37478158 0.18319242 -0.06851606 0.3661723
0.55908024 -0.58612347 -0.7777472 0.14666763 -0.50947374 0.7098468 0.07309089 0.23854426
0.39431545 -0.218015 0.051017616 -0.15619324 1.6370091 -0.19860388 -1.2495025 -1.0771121
-0.04665548 -1.3944374 -0.43348026 0.6285437 -0.2198233 0.5572103 0.6118685 0.42013913
-0.7473471 -0.28747675 0.79182833 0.68601954 -0.032722358 -0.108546555 0.013885475 -0.48598498
0.20536496 0.35472846 -0.54573333 -0.30707905 -0.7233824 -1.0179118 -0.4076491 -0.48019123
-0.30022922 -0.2833785 -0.27164954 0.654302 -0.4427618 -0.3143713 1.472393 -1.194358
00000000: f141 863e 98c4 0c40 44a7 6dbe bda5 b63e
00000010: d03c 733f 745e 1d40 3f8c 86bf 5acd 61bf
00000020: 0a32 b5be ab96 0fbc 2a93 5b3f 3594 f03e
00000030: 295e 1a3f e352 40bf 1e9f aebf a115 c53d
00000040: 3be0 b13e fde9 c6be 8f56 063f 752f b93d
00000050: 2a80 babf b7ff 03bf 0dd3 183f 3d86 713f
00000060: 4d96 a8be 9d4c 823e d484 803e 57ce 63be
00000070: 66a5 cf3e 2ba5 7c3e 561e aa3e e9ab a33f
00000080: 3a58 dfbf 7070 71be 116b 33be d3d6 f9be
00000090: 0ca0 3fbf ada0 cb3e 71ba d7be ba50 073f
000000a0: e0a4 303f f514 133f 0229 ad3f 28d4 28bf
000000b0: e270 6dbe 4e7a da3e 5405 853f aad5 41bf
000000c0: 323f d63f 1d89 2cbf 9a8f 5cbe 4a2a 8abf
000000d0: 1a7d e93e fb43 95be 140d 673f cd10 16bf
000000e0: 1e14 fbbf d5a4 a6bf 9f6a d3be c4e5 4b3f
000000f0: 52c9 fd3f 940e 82be b44b 65be a5b0 d3bf
00000100: 92c1 68bf b61f c4bf 26a4 74bf 6881 f23c
00000110: ec18 883f 9fe0 0340 8e46 6d3f 5217 7dbe
00000120: 376a 8fbf da94 53bf dce5 52bd bab4 89bf
00000130: b79f b83d 15ef 99bf 22df 7b3f a2e8 ff3f
00000140: 3fd3 fbbe c481 883f 2854 07bf bd44 3540
00000150: af44 1a3f 349c 813f 0bde 43bf 8b96 c2be
00000160: 7742 e13f 0881 4bbf b8cb 22bf 694d 37bf
00000170: 2c0a 1dbf b8d6 24bf 0f53 47bf fbff 82be
00000180: fc18 cb3e 9c35 473f e473 de3e 755e 8bbf
00000190: 40bf f43f 870b f0be 3c14 9dbf 1a72 9abf
000001a0: 456b d43f ed9c f03d 4e64 9c3d 18bf 8b3e
000001b0: 94e0 27bf 6150 2bbf dc83 773f fa34 833e
000001c0: fb95 78bf 4f75 acbe 2a8a 863f 5c4d f0be
000001d0: c2d0 d6bf 9d7b 4fbf b64b 5dbe 13db 863f
000001e0: 7f51 433e cfc7 50be 9875 d93e 1b74 cdbd
000001f0: 2255 b13f 731d d2be 5fb9 75bf 2430 72bf
00000200: f64e cdbe eaff 9cbe 872f f03e 4c54 773f
00000210: 37df b8be 5753 c93e 800d 8b3f 4150 a43e
00000220: 0f5a 8cbf 62ee 35bf e344 e6be 785b 083f
00000230: 9068 87be 390f b43e bf36 fabf ac8a 9c3f
00000240: 92fa 9f3f 8341 c4be 987f c6bf 486c 6d3f
00000250: 12df 97be 3e97 97bf 38f5 9c3f 7d7b d73f
00000260: b3d5 c63e 76ff 32bf 6531 2e3f 1dad 523e
00000270: c6e5 a23e b203 233f 630d ae3e fade 90be
00000280: 8d57 48be 9361 ad3e f30f 59be 9815 673f
00000290: fc5a 1540 41c0 be3e b520 6bbf 8445 013f
000002a0: 5e6a 503d 1e52 c2bc df71 c5bf b5a7 9fbe
000002b0: 1765 97bf b8f9 2bbf 8d5f ea3f 44f4 8dbf
000002c0: a6ba 65bf 2abc 24be eb10 87bb a66c 12c0
000002d0: 3594 73be 370c b7bf 7133 6ebf 9cfd a03f
000002e0: 412d 1240 d35f c4bf 3c50 dd3d 65af a0bf
000002f0: f690 d4bf d876 acbf 9ee9 943e cac0 173f
00000300: 02c9 80bf 7af9 16bf 088e b13f bcea d73e
00000310: 03fe 89bf 33d4 593f 2bef a7bf d49a c73f
00000320: 9c56 62bf c41b 493f 4d46 debe eb6c 99bd
00000330: 5fe3 bf3e cb96 3b3e 2652 8cbd f07a bb3e
00000340: e21f 0f3f 300c 16bf 711a 47bf 0a30 163e
00000350: df6c 02bf 85b8 353f adb0 953d f244 743e
00000360: b7e3 c93e 533f 5fbe d9f7 503d 1ff1 1fbe
00000370: 8489 d13f d15e 4bbe b3ef 9fbf cfde 89bf
00000380: d119 3fbd ed7c b2bf 20f1 ddbe 3de8 203f
00000390: 5c19 61be 56a5 0e3f 6aa3 1c3f 7a1c d73e
000003a0: 2452 3fbf 2730 93be 43b5 4a3f fa9e 2f3f
000003b0: e107 06bd a84d debd e77f 633c 06d3 f8be
000003c0: 314b 523e f89e b53e 2eb5 0bbf 7739 9dbe
000003d0: 972f 39bf ef4a 82bf 62b7 d0be a0db f5be
000003e0: a5b7 99be fd16 91be a615 8bbe 5680 273f
000003f0: adb1 e2be 46f5 a0be 6077 bc3f b9e0 98bf

lstm_2.bias_ih f4 [40]
-0.38510197 -1.0847925 -0.72745264 0.10451835 -1.0869161 -0.5009786 -0.4563748 -0.94849455
-1.3828532 0.92880636 0.1199542 0.4026229 0.5025346 -0.10238972 -0.51866895 -0.80527663
1.381559 0.73564065 0.17882155 0.7042574 -0.8356873 -0.5978307 -0.29525647 0.12610592
-0.18737075 -0.10298821 0.32581776 0.14368041 0.17908384 1.1833346 0.23748855 -0.5466474
0.07507018 -0.0516878 -0.4197354 0.3598563 0.872894 1.2804745 -0.023301214 -0.7231881
00000000: 162c c5be 7bda 8abf 563a 3abf b70d d63d
00000010: 1120 8bbf 2240 00bf f5a9 e9be 8ad0 72bf
00000020: 5501 b1bf 41c6 6d3f 8caa f53d 9724 ce3e
00000030: 1ca6 003f b4b1 d1bd 7dc7 04bf 9c26 4ebf
00000040: edd6 b03f f252 3c3f ff1c 373e 374a 343f
00000050: 9aef 55bf 6f0b 19bf db2b 97be e921 013e
00000060: 1ede 3fbe 7ceb d2bd 96d1 a63e f520 133e
00000070: c161 373e 8277 973f 3330 733e 16f1 0bbf
00000080: 65be 993d 96b6 53bd 8fe7 d6be 163f b83e
00000090: fb75 5f3f 97e6 a33f 30e2 bebc db22 39bf

lstm_2.bias_hh f4 [40]
0.0022423756 -1.1703452 -0.6074073 0.32309708 -1.2991958 -0.13963659 -0.52542514 -1.1318071
-1.0435965 1.2340318 0.5590405 0.5812853 0.30635214 0.0730103 -0.3952196 -0.8822215
1.3447869 0.88094157 0.044508524 0.68885094 -0.6968306 -0.1483211 -0.5985865 -0.21941316
-0.44869313 -0.23192126 0.5006679 -0.042283043 0.33705702 1.2194533 -0.043434575 -0.5497405
-0.17949928 -0.14670914 -0.3820443 0.38349968 0.98849106 1.5653743 0.4810208 -0.14669162
00000000: d2f4 123b dfcd 95bf 0b7f 1bbf fb6c a53e
00000010: 0c4c a6bf e5fc 0ebe 4382 06bf 0edf 90bf
00000020: 9294 85bf c1f4 9d3f 471d 0f3f 1dcf 143f
00000030: 30da 9c3e 6d86 953d 395a cabe 45d9 61bf
00000040: fa21 ac3f 6385 613f 924e 363d 8958 303f
00000050: 7d63 32bf 7de1 17be f73c 19bf d8ad 60be
00000060: 1bbb e5be c47c 6dbe c62b 003f fc30 2dbd
00000070: bd92 ac3e 0c17 9c3f 74e8 31bd cbbb 0cbf
00000080: a9ce 37be ec3a 16be 4f9b c3be 125a c43e
00000090: c00d 7d3f 2f5e c83f 5c48 f63e 5436 16be

fc_2.weight f4 [2, 10]
-0.65428686 -1.2707477 1.2898377 1.012088 -2.1790273 0.28680393 0.9272369 -0.91690457
1.6110829 -1.1894746 -0.5610618 -1.2706006 1.2260103 0.6642068 -2.2949886 1.1309862
1.3564754 -0.8677352 1.4413897 -0.9824508
00000000: 587f 27bf dca7 a2bf 6719 a53f 198c 813f
00000010: 2f75 0bc0 f7d7 923e 665f 6d3f 42ba 6abf
00000020: f737 ce3f b440 98bf bfa1 0fbf 0aa3 a2bf
00000030: e8ed 9c3f 7509 2a3f 18e1 12c0 28c4 903f
00000040: fca0 ad3f e523 5ebf 757f b83f e581 7bbf

fc_2.bias f4 [2]
-0.8611151 -0.96265
00000000: 0a72 5cbf 3b70 76bf
