model_kp.pt (torch, 23162 bytes, 15 tensors)

lstm_1.weight_ih f4 [40, 20]
000000 41 da a0 3e af c8 cd be 7e ef d0 bf 4f 27 8f 3e
       0.31416515 -0.40192172 -1.6323087 0.27959678
000010 87 a5 2b bf e0 e6 6f bf 9d d5 72 bd 09 72 59 bf
       -0.6704945 -0.9371166 -0.05928575 -0.8493963
000020 d2 83 cc 3f 58 b7 0d be 68 44 09 be 56 3d 57 3f
       1.5977728 -0.13839471 -0.13405001 0.84077966
000030 6d 60 8b 3f 27 93 03 be b3 b3 95 bc 8b 3c 48 3d
       1.0888802 -0.12849103 -0.018274164 0.048885863
000040 06 2d 50 3f 69 db 07 3f d2 ce db b8 14 51 9c bc
       0.813187 0.5306917 -0.00010481257 -0.01908163
000050 b4 0e d5 be da 1a 18 3e d4 e9 d0 3e b9 a5 c2 be
       -0.4161278 0.14853993 0.40803397 -0.3801706
000060 93 e7 02 3f 79 2a 78 be e7 82 88 3e 55 0b 01 3f
       0.51134604 -0.24234952 0.2666237 0.50407916
000070 fd 7b 15 bf db b8 be 3f 66 15 8d 3e eb 69 2f 3f
       -0.58392316 1.4900163 0.27555388 0.68520993
000080 23 0f 96 be 28 7c 3b bf 3e 30 a4 bf 6e 72 22 3f
       -0.29308423 -0.7323632 -1.2827222 0.63455856
000090 ee 79 81 3f 85 8d a8 3e 83 2a ae bd 6a df 13 bf
       1.0115335 0.3292047 -0.08504202 -0.5776278
0000a0 dd 47 ce 3e 8a 4b 6a 3f 1c 26 57 3f ae 8a 43 3d
       0.40289202 0.91521513 0.84042525 0.047739677
0000b0 ab 6d 96 3e 3c 5c 94 bd 2d 39 ff bc 2e a8 99 3f
       0.29380545 -0.07244155 -0.031155193 1.2004449
0000c0 75 0a 85 3f c1 af 82 bd 70 a5 4c be 85 e5 e4 be
       1.0393816 -0.06381179 -0.19984984 -0.4470636
0000d0 d6 5c 40 3f d6 0e d3 be 27 2e 45 bf 4c ee 3f be
       0.75141656 -0.41222256 -0.7702355 -0.18743247
0000e0 37 1f f5 bd 81 d5 b7 bf 66 01 9b bf 91 d7 8d 3d
       -0.119688444 -1.4362031 -1.2109802 0.06925882
0000f0 61 d6 15 bf 51 24 2b be 21 d9 84 3e 24 4f 67 be
       -0.5853024 -0.16713072 0.25946906 -0.22588784
000100 a6 74 0c 3f 5f 93 b2 be d8 9d 31 3f 1c df 42 3f
       0.5486549 -0.3487806 0.69381475 0.7612169
000110 40 6d 47 bf 9d 4d f7 be 72 74 89 be 3f 05 63 bf
       -0.7790108 -0.48301402 -0.26846653 -0.8867988
000120 e4 6e 02 3e 90 95 2b 3f c8 6d a7 be f2 56 77 be
       0.12737614 0.6702509 -0.32700944 -0.24154261
000130 6f f9 20 3f aa fc 8d be 41 62 05 be ce 0d 86 3c
       0.62880605 -0.2773183 -0.13025762 0.016364004
000140 e5 06 04 bf ba e6 35 3e e5 05 fe 3d cb 4d a5 be
       -0.5157302 0.17763796 0.12403468 -0.32285914
000150 78 94 aa bd 9a fe 5a be a4 0c 79 3e e1 c3 1d bd
       -0.083290994 -0.21386185 0.24321228 -0.038516883
000160 33 01 50 be fd 23 bc 3f da be de be f7 2d 09 bf
       -0.20312957 1.4698483 -0.43504983 -0.5358576
000170 f9 61 a5 3e 61 04 38 3e 62 32 46 3e 98 e9 3b be
       0.3230131 0.1797042 0.19355157 -0.18350828
000180 34 fd 55 3e 42 e4 c2 be 58 73 0f bf 20 23 21 3f
       0.2089737 -0.38064772 -0.56035376 0.6294422
000190 0b e4 e4 bd b7 79 59 be ea 48 9a bf e8 8d f5 be
       -0.11176308 -0.21237837 -1.2053502 -0.47959828
0001a0 a0 10 37 3f df d5 90 be eb 9a b3 3e 01 c0 b6 bc
       0.7150974 -0.2828817 0.3507913 -0.022308351
0001b0 b4 28 1f 3e 9e 42 0f 3f c3 b8 59 3f 01 de 5d bb
       0.15542871 0.55961025 0.8504755 -0.0033854248
0001c0 c2 97 2c 3e 43 77 46 3e 75 c4 fe 3e 11 8a f8 3e
       0.16854766 0.19381432 0.4975926 0.48542836
0001d0 e5 cf b7 3d 8a c8 36 bf f1 b6 57 3e bf 19 c3 bc
       0.089751996 -0.7139975 0.2106588 -0.023815988
0001e0 e2 a6 c7 3e 6a e8 11 bd 25 2f 72 3c be 95 14 3e
       0.3899451 -0.035622038 0.014781748 0.14510247
0001f0 25 33 2b 3f a1 79 f1 3d a3 1e db bd 76 5e 11 be
       0.66874915 0.11790777 -0.10699203 -0.1419619
000200 d6 a0 ed 3e e7 b9 1e 3f 8c 9f 20 3f e9 85 59 bf
       0.4641177 0.62002414 0.6274345 -0.84969956
000210 91 69 c6 be 47 17 9f be 1e e7 e9 bc d0 cf 15 3f
       -0.38752416 -0.31072447 -0.028552588 0.5852022
000220 50 be 34 3e de 09 10 be 19 81 7f 3e c5 b9 aa be
       0.17650723 -0.14066264 0.2495159 -0.33344856
000230 15 ea e0 bd 2f 23 09 bf 6d ce 16 3e df 2d 59 be
       -0.109821476 -0.5356931 0.14727183 -0.21208905
000240 f3 74 c0 3f 50 85 79 3f c3 95 bc 3e f3 95 0b 3f
       1.503569 0.97469044 0.3683301 0.5452568
000250 69 2b 4a 3f 96 f9 98 3d e5 8f 78 3e 71 86 7a be
       0.7897249 0.0746948 0.24273641 -0.24465348
000260 d2 64 4f bf 50 b0 d6 3d d5 ab b5 bd 5a 6d dd 3e
       -0.81013215 0.10482848 -0.08870665 0.4324749
000270 77 31 2f bf 77 ec d0 be 0e 8d 10 3f 49 b1 8b be
       -0.6843485 -0.40805408 0.5646523 -0.27283695
000280 1c 01 39 3e 9e d4 cb 3c ef 87 c3 be 60 bb 99 be
       0.1806683 0.024881657 -0.38189647 -0.30025768
000290 42 36 c8 3e a9 8b 9d 3d f6 65 72 3c 17 29 a5 3f
       0.39103895 0.07692654 0.014794817 1.2903165
0002a0 ae 38 1c bf b5 94 25 3f bf 95 70 be 08 93 1e bf
       -0.61023986 0.64680034 -0.23494624 -0.619431
0002b0 70 f6 cd 3e fd e0 5e be c0 2f d7 3d 97 1b 49 bf
       0.4022708 -0.21765514 0.105071545 -0.78557724
0002c0 77 64 ce be 10 d0 7e bf b5 5a 9c bf e5 7c d0 3c
       -0.40311024 -0.9953623 -1.2215182 0.02545018
0002d0 dd 1a 0d bd 2b 21 c7 bd 0a da 7b be 79 cc d1 3c
       -0.034449447 -0.09723123 -0.24594894 0.025610195
0002e0 a4 5a 37 3e 5b 57 39 bd 3f 94 63 be d5 14 f7 3f
       0.1790567 -0.045249324 -0.2222452 1.9303232
0002f0 56 58 4f bf 00 a0 62 3f fe ad e3 be 58 7f 7c 3e
       -0.80994165 0.8852539 -0.44468683 0.24657953
000300 ad 4e 7a 3f df cb a1 3c 12 a3 d7 3e 04 dc d2 be
       0.977763 0.019750534 0.421166 -0.41183484
000310 f7 62 09 3f f8 71 6f 3d 02 03 51 be ed 72 34 3e
       0.53666633 0.0584583 -0.20411304 0.17621966
000320 c5 12 0f 3f 45 e9 12 3f 77 70 91 bf b9 3e 03 3f
       0.55888015 0.5738719 -1.1362447 0.5126758
000330 ba cf 11 3f d8 cd 94 be 62 e6 99 be cd 1a d7 be
       0.5695759 -0.29063296 -0.3005858 -0.42012635
000340 72 6f a0 3d 6f 54 84 3f d1 a3 ae bf 25 3d 19 3f
       0.078337565 1.0338267 -1.3643743 0.59858924
000350 70 12 35 bf e3 0d f3 bd 31 c1 97 be d7 45 8e bf
       -0.7073126 -0.11867883 -0.2963958 -1.1115063
000360 2d 88 65 3f f9 13 6c bf d2 01 db be 5a ec 29 bf
       0.8966091 -0.92217976 -0.42774826 -0.6637627
000370 39 fd 6f bf 65 64 4d bf 8f 6e 07 3e 84 0c 16 bf
       -0.9374576 -0.80231315 0.13225769 -0.5861285
000380 7b 74 9c bf 3c f2 fd bd b8 fd f2 3e 86 4c 4e be
       -1.2223047 -0.12399718 0.47459197 -0.20146379
000390 29 81 10 bf 21 18 b0 3e de 1d 82 be 29 2b d3 3d
       -0.5644708 0.3439341 -0.25413412 0.103109665
0003a0 08 21 9b 3e 7a 0f 9e 3f 80 43 2a 3e 8f a4 32 be
       0.30298638 1.2348473 0.16627312 -0.17445587
0003b0 9e c6 dd 3c ce 58 85 be 73 b7 48 3e 89 8d 0d bf
       0.027072247 -0.26044315 0.1960123 -0.5529409
0003c0 da 3b 86 bd 13 fc 06 bf f5 f5 93 3f 41 8d 6c 3e
       -0.065543845 -0.52728385 1.1559435 0.23100759
0003d0 b4 65 2d bf d9 17 d4 3e 8e f6 67 be d0 0d d9 3f
       -0.6773331 0.41424444 -0.22652647 1.695734
0003e0 1e f5 7f bd 3e 05 cf 3e 29 54 9e 3f 1d 40 52 bf
       -0.06248962 0.40433687 1.2369434 -0.8212908
0003f0 23 8a 83 3e f6 0a 13 3f 96 c2 00 bf 2d fc 5a 3f
       0.25691327 0.574386 -0.50296915 0.8554104

lstm_1.weight_hh f4 [40, 10]
000000 4b 7c 64 3e a3 e3 fa 3e 57 a6 e0 3f 22 e8 86 3f
       0.22313039 0.49001798 1.7550763 1.0539591
000010 f8 4a cb bf 8e a5 07 bf aa e1 a4 bf 2e 1e 9a 3e
       -1.5882254 -0.5298699 -1.2881367 0.3010115
000020 2d c2 37 3f 8b 72 07 be 69 95 4e be 63 ea 92 ba
       0.71780664 -0.13227288 -0.20174183 -0.0011208769
000030 7f 51 93 be 87 86 2a be 3e 8b 82 bf 5e 93 f9 3e
       -0.28773114 -0.1665288 -1.0198743 0.48745245
000040 6c 98 44 3e 98 08 93 bf b8 8f a0 3f b3 40 b4 3e
       0.1919877 -1.1486998 1.254386 0.35205612
000050 62 b1 b1 3f 3f da 2a bf 16 cb 65 3f 7b a8 cb bd
       1.3882258 -0.6673927 0.8976301 -0.099442445
000060 be 36 af bf 03 96 05 3f 5f 75 7d 3f 1d e7 09 c0
       -1.3688581 0.52182025 0.9900722 -2.154731
000070 84 d6 85 3f e8 35 6d be 4d e3 82 3f b2 f7 8a 3e
       1.045609 -0.23165095 1.0225617 0.27142102
000080 e6 72 18 3f 19 36 9d bf 30 51 25 bf 47 0a 71 bc
       0.5955032 -1.2282134 -0.6457701 -0.014711923
000090 3f ac b6 be f8 53 86 3f 64 5a 6a 3f 5c 24 31 3f
       -0.35678288 1.0494375 0.91544175 0.69196105
0000a0 2b c8 b6 be 28 0b 03 bf 53 fb d8 bf 50 7a 87 be
       -0.3569959 -0.511889 -1.6951698 -0.26460505
0000b0 6d e4 e6 bf 24 15 10 bf 2d c8 88 3f 67 ed 6a be
       -1.803846 -0.5628226 1.0686089 -0.22942124
0000c0 6c c9 cc 3f 53 17 9a 3f 45 b1 82 3e 60 c1 7e 3e
       1.5998969 1.2038368 0.2552587 0.24878454
0000d0 00 1d 7f bf 49 84 82 bf db 24 95 bf 94 6d c5 3f
       -0.99653625 -1.019662 -1.1651872 1.5424066
0000e0 f0 2f eb 3e 3e e5 64 bd 3e 04 b6 3f 7f 93 78 bf
       0.4593501 -0.055882685 1.4220045 -0.9710006
0000f0 2f 69 0f bf a7 d8 53 3f 11 37 a0 3f 70 4a 16 3f
       -0.5601987 0.8275246 1.2516805 0.5870733
000100 7c 4a b1 bf 0d c8 42 bf 3e 97 a7 3f 51 64 f6 3f
       -1.3850856 -0.76086503 1.309303 1.9249364
000110 7c 39 02 3f b5 21 1b 3f cb 9a ab 3f dc 70 c0 bf
       0.50868964 0.6059831 1.3406614 -1.5034442
000120 2d a0 1c 3f f1 5c 63 bf 30 47 d0 bf f5 b1 90 3f
       0.6118191 -0.8881369 -1.6271725 1.1304308
000130 34 d0 91 3e ec cd 44 bf 58 0f b5 3f ac 44 89 3f
       0.2847916 -0.7687671 1.4145308 1.0724082
000140 8f 72 bd be a5 ca 8a bf c3 e3 bb be fd ef 34 be
       -0.37001464 -1.0843092 -0.36697206 -0.17669673
000150 9e 9c a8 bf 10 3f 73 3f 07 a4 9b 3f 6c b7 8e 3f
       -1.3172796 0.950181 1.2159432 1.1149726
000160 05 c6 8c 3f c7 73 55 3d ce 1e bf 3e 65 c4 8b 3f
       1.0997931 0.052112367 0.3732819 1.091931
000170 ba 54 6a 3f a0 ee 0a 3f 2e e1 cc 3f 48 32 60 3f
       0.9153553 0.5427036 1.6006219 0.87576723
000180 d6 4b d6 bf c9 0c 1b c0 8f 4a 0c c0 d1 78 78 be
       -1.6741893 -2.4226553 -2.1920507 -0.24264838
000190 e1 79 1f 3e 37 6f 0a bf 65 7e 9c 3f b4 ae 79 3f
       0.15573837 -0.5407595 1.2226073 0.975322
0001a0 e4 cb d4 3e 71 54 ea 3e ba 93 ce 3e e9 0f 38 3f
       0.41561806 0.4576755 0.4034708 0.71899277
0001b0 7a 89 33 40 90 cf 96 3e 68 46 2e 3f 4f ec bb bd
       2.805266 0.29455233 0.6807618 -0.09175932
0001c0 c2 99 8e bf 55 9b f7 3f 60 80 9b bc 20 d5 0b bf
       -1.1140673 1.9344279 -0.018982112 -0.5462208
0001d0 5a a3 6d 3e 5c a4 13 bf 60 23 05 bf 0b 7e 40 3f
       0.23206845 -0.5767267 -0.520071 0.75192326
0001e0 9c be 10 40 b5 b3 20 bf f7 e6 06 3f 5d 88 a5 3f
       2.2616339 -0.6277421 0.52696174 1.293224
0001f0 65 12 1f 3e a0 3e bc 3f 57 84 05 3f fd ea cd be
       0.1553436 1.4706612 0.5215506 -0.40218344
000200 26 73 21 bf 0d 4b a7 3e 30 6a 2b be 1a 8d 2f bf
       -0.6306633 0.32674447 -0.16739726 -0.6857468
000210 ad a9 c7 be 92 7a 66 3f 47 6c 6d 3f fc d4 12 3f
       -0.3899664 0.9003078 0.92743343 0.5735624
000220 e3 1c da bf 7d d6 74 3f 5a 17 0e bf 56 23 a1 3e
       -1.7040066 0.95639783 -0.5550438 0.31472272
000230 03 d2 57 3d 17 e1 61 bf 28 fe 45 3f bd 54 78 3f
       0.052690517 -0.88234085 0.77340937 0.970043
000240 07 6e 92 3f 70 79 c1 bf 0f d1 fd bc 7a 0b dd 3f
       1.1439828 -1.5115185 -0.030983476 1.7269127
000250 67 86 a0 bd 1e 6d 6f 3f e1 70 37 3f 8f f7 0a bf
       -0.07838135 0.93525875 0.71656615 -0.54283994
000260 c2 89 6e 3f e2 a7 3c 3f 59 ca 8a bd 73 88 ac be
       0.9317895 0.7369367 -0.06776876 -0.33697852
000270 e7 f7 85 bf 46 f9 dd be 41 ed c7 be 28 c2 6e be
       -1.0466279 -0.43354243 -0.39048198 -0.23316252
000280 11 79 73 bf 8c 11 12 40 d6 77 a3 bf 42 0d 30 3f
       -0.9510661 2.282321 -1.2770946 0.6877023
000290 a2 c2 29 3f d3 10 1c bf b1 e8 07 bf c3 0b 7d 3f
       0.6631261 -0.6096317 -0.53089434 0.9884607
0002a0 b7 05 a2 bf 8d c9 4a 3f 01 aa d8 3e cd 3c f8 bd
       -1.2657994 0.7921379 0.42317203 -0.12120972
0002b0 83 1f 3f bf 3d b2 20 40 b2 c6 08 bd fc 22 ba bf
       -0.7465746 2.5108788 -0.033392616 -1.4541926
0002c0 1f 91 15 bb 77 2a b2 3f ff 3e ed 3e 74 f3 cf 3f
       -0.0022822095 1.3919209 0.46337125 1.6246171
0002d0 1e 8c a2 3f a4 b4 6f 3e fd 63 d7 3f 1a 4f 7d bd
       1.269901 0.23408753 1.6827389 -0.061843015
0002e0 89 af 92 be b8 53 da 3d b2 98 36 be 0c 75 5e bf
       -0.28649548 0.10660499 -0.17831686 -0.8689735
0002f0 49 63 24 bf 46 16 d6 3c 3e 8a a4 3f 05 3f e7 3e
       -0.64214 0.026133668 1.2854688 0.45165268
000300 02 45 07 be 27 13 83 be fd 53 1d 3e f3 41 e1 3e
       -0.13209918 -0.2560055 0.1536407 0.43995628
000310 b8 1d 9c 3e 1b 9f 89 bd 71 d1 7f bf d7 c5 91 bd
       0.30491424 -0.067198 -0.9992896 -0.07117813
000320 85 2e 07 bf 6d c4 2e be 6e e1 0a 3f 07 9a 31 bf
       -0.5280536 -0.17067118 0.5425023 -0.6937565
000330 4c 53 2f bf 74 42 5b 3f 1f 44 74 3f b2 88 c8 3e
       -0.68486476 0.85648274 0.95416445 0.3916679
000340 4b a2 51 3f 8d 85 13 bf 9f 28 09 bf af b3 5a be
       0.81888264 -0.5762566 -0.5357761 -0.21357606
000350 95 b4 e1 3b 19 d6 28 3f f2 0e 16 bf 99 71 a5 3e
       0.006887982 0.6595169 -0.58616555 0.3231323
000360 84 93 0e bf c5 ed 6d bf 4a 7c 3c 3c cf 76 6e 3e
       -0.5569384 -0.9294093 0.011504242 0.2328751
000370 3e 03 2c bf 5e 98 86 3e 4c 3f 17 bf 9b ef b6 be
       -0.6719245 0.26288122 -0.5908096 -0.3572968
000380 70 43 95 3d 2b 9c 56 3e 7d 0d 3d bf 7f 08 0d bf
       0.07288253 0.20958011 -0.73848706 -0.5509109
000390 7e 72 2c bf 50 a8 21 bf b2 bb 08 3e c1 df 0e 3e
       -0.673622 -0.6314745 0.1335285 0.13952543
0003a0 41 cc 03 bf 69 f7 a9 bf e7 35 68 be 3b 81 0d 3e
       -0.5148354 -1.3278629 -0.22676812 0.13818829
0003b0 8b e5 8e 3e 94 d8 3a 3f bb 25 7e be 4d 86 fa 3e
       0.27909502 0.7298672 -0.2481908 0.48930588
0003c0 2b f7 98 be 74 05 9f 3e 7d 77 c8 bd e4 af 0e bb
       -0.29876074 0.31058848 -0.097884156 -0.002177232
0003d0 ec 53 87 bf 16 7e 9a be 92 91 c3 3d 23 51 9c be
       -1.0572486 -0.3017432 0.0954925 -0.30530652
0003e0 ce 4d e3 3e 87 b2 24 3f f8 96 7a 3f 75 1c 3d be
       0.44395298 0.6433491 0.9788661 -0.18467887
0003f0 e9 f8 e9 be 22 be 7c 3f 8e 5f 1e 3f af 84 8a bf
       -0.45697716 0.9872762 0.61864555 -1.0821742

lstm_1.bias_ih f4 [40]
000000 d1 5f b7 3d 67 4d 3d 3f 22 13 c0 bf 45 5c f8 3e
       0.089538224 0.7394623 -1.5005839 0.48507896
000010 9c 27 c5 be 04 77 47 3e 7c 74 bb bd 66 09 71 3e
       -0.38506782 0.19478995 -0.09153077 0.23538741
000020 99 7e 4b 3f 66 68 be bd 27 bc d0 bd 1d d1 04 bf
       0.7949005 -0.09297256 -0.10192137 -0.5188158
000030 2f 25 94 3c 0d 69 1c bf 95 40 90 3e 7f fe d7 be
       0.018084137 -0.61097795 0.28174272 -0.42186353
000040 66 36 95 3f 82 8f b5 bd 99 27 41 3f 78 61 51 3f
       1.1657226 -0.088652626 0.75451046 0.8178935
000050 b1 52 55 bf 5a ec 33 3f 2d 27 6c 3e 97 7f 11 3e
       -0.833293 0.7028252 0.2306182 0.14208828
000060 7e 80 3c 3f 14 a7 03 bf 84 45 b9 be 26 0b 72 bf
       0.73633564 -0.51426816 -0.3618585 -0.9454826
000070 f7 6f 36 bf 0d 0e ae bf 12 8d 6d 3f ae 61 08 bf
       -0.71264595 -1.3598038 0.9279338 -0.5327405
000080 ee 01 e7 3e 2f 0c 0e 3f 05 22 00 3f 76 36 8c 3e
       0.4511866 0.5548734 0.5005191 0.273853
000090 d5 43 58 bf 5e cd 80 be d4 07 8f be 59 a7 12 3e
       -0.84478503 -0.25156683 -0.2793566 0.1432165

lstm_1.bias_hh f4 [40]
000000 f0 10 9e 3d d1 9a b3 3e 2e e2 95 bf ff 29 29 3f
       0.07718074 0.35079053 -1.170965 0.66079706
000010 08 2b a6 be f5 42 0f 3e e8 6c 2b 3e ea 49 47 be
       -0.32454705 0.13990386 0.16740763 -0.1946179
000020 1c d3 fc 3e f4 7d 0d 3c 67 60 b2 be a9 18 78 be
       0.49379814 0.008635987 -0.34839174 -0.24228157
000030 d7 f5 f4 3e 18 3b 2a bf 60 89 42 3e eb 63 65 bf
       0.4784381 -0.6649642 0.18997717 -0.8960559
000040 8e 70 38 3f 09 55 0d bf dc fc 32 3f 01 27 82 3f
       0.72046745 -0.5520788 0.6991708 1.0168153
000050 c6 d6 fb be 11 44 54 3f 1b 4e 90 3e d9 c0 3e bc
       -0.49187297 0.8291636 0.2818459 -0.011642658
000060 bd e6 03 3f 3a 14 29 bf c2 bc b8 3d f3 69 56 bf
       0.51523954 -0.6604649 0.09020378 -0.83755416
000070 39 12 50 bf 4e 64 98 bf c0 d3 81 3f 21 c1 99 be
       -0.81277806 -1.190561 1.0142746 -0.30030158
000080 ad db e4 3e de 21 0b 3f 7f 93 74 3f d3 b6 b7 bc
       0.4469885 0.5434855 0.9553756 -0.022426045
000090 5a 63 ff be 62 bb 2d be 16 2f 83 be a2 18 c0 3e
       -0.49880487 -0.16966012 -0.2562186 0.37518793

fc_1.weight f4 [20, 10]
000000 82 51 29 be f3 c2 40 be 1c 79 d9 3d 22 a2 21 3d
       -0.16534999 -0.18824367 0.10618803 0.039461263
000010 4b 87 ef bd 64 85 9a 3d 5d 42 a6 bd a3 c6 a5 3d
       -0.11695727 0.075449735 -0.081181265 0.080945276
000020 98 34 95 3d 25 91 20 3e 36 3a f7 3e 22 ba 46 3f
       0.07285422 0.15680368 0.482866 0.77627766
000030 a8 7e ca be 66 08 8a 3e 5b e2 29 3e 64 b9 f7 be
       -0.39549756 0.26959532 0.16590254 -0.4838363
000040 5f 4e cd be 2a 0c ce 3d 1f 0a 52 be a3 c4 c3 3e
       -0.40098855 0.10060914 -0.20511673 0.3823596
000050 72 5f 43 3d 46 aa bf 3e d3 0c 97 be 41 84 d1 3d
       0.047698446 0.37434596 -0.29501972 0.102303036
000060 fa 20 c1 bd a1 05 5c be 22 9d 2d be 7a 19 31 3e
       -0.09430118 -0.21486522 -0.16954473 0.17294875
000070 7d 62 8a bc bc 76 a7 3e 7b 77 19 3e 8d 63 22 bf
       -0.016892666 0.32707775 0.14986984 -0.6343315
000080 72 95 83 3e 26 b1 1d bf 42 4a 27 bf 3e d1 33 3f
       0.25699955 -0.6159843 -0.65347683 0.70241153
000090 5f 96 67 3f 92 6d 6b be f4 3f 94 3e 55 6b 29 bf
       0.90463823 -0.22991017 0.28955042 -0.661794
0000a0 85 ea 6f 3e 72 28 e1 3d 46 cd 51 be 07 1b c5 3e
       0.23429306 0.109940425 -0.20488462 0.38497183
0000b0 02 87 32 3f 93 d8 25 bf ae da 54 bf d2 a7 b5 3d
       0.69737256 -0.6478359 -0.8314618 0.088699
0000c0 0e 31 3c be 04 f2 0b 3f da d8 16 3e f9 c5 07 3f
       -0.18378088 0.5466616 0.1473116 0.5303646
0000d0 e0 83 c5 be 7c 99 9b 3e 98 c6 8d 3d 6a 59 cd be
       -0.38577175 0.30390537 0.069226444 -0.4010728
0000e0 62 b8 02 bf dc 03 c3 3b 5a b8 8f be 34 fa c3 3e
       -0.51062596 0.005951388 -0.28070337 0.38276827
0000f0 92 5c 53 3e 27 51 c7 3e a3 c2 73 3e fd 2c 5b be
       0.20640782 0.38929102 0.23804717 -0.2140388
000100 98 79 9c be ad 6a 51 3e 12 86 1e 3f bc 37 6a 3e
       -0.3056152 0.2045085 0.61923325 0.22872823
000110 c6 c3 0e be ea c4 d4 bd dc 26 ec be 92 c9 a3 be
       -0.13941869 -0.10389121 -0.46123397 -0.31989723
000120 d0 b1 15 3f 67 c6 6a bd 8d e0 e2 3e a3 31 39 be
       0.58474445 -0.057318117 0.44311944 -0.18085341
000130 d7 8b 05 bf a3 bd d6 be 03 08 06 3e 09 3f 2f 3e
       -0.52166504 -0.41941556 0.13088994 0.1711389
000140 80 4b ba 3e 4f 18 85 3d dd 0c 66 be 9d 5f fb 3e
       0.36385727 0.06498777 -0.22465844 0.49096385
000150 76 de b3 3e dd c3 1a bf d8 42 b6 be a9 d7 6a 3e
       0.35130662 -0.60455114 -0.35597873 0.2293383
000160 ed 39 6a be 5c e8 2d 3f 62 7b 1d 3e b2 2f db 3e
       -0.2287366 0.6793268 0.15379098 0.42809826
000170 62 02 18 bd 4d d8 8c 3d cb a5 9a be 05 98 6a be
       -0.037111647 0.068771936 -0.30204615 -0.22909553
000180 d3 a3 2f bd 15 9f 1d 3e b9 17 8c 3d 3c 30 82 3e
       -0.042880844 0.15392716 0.06840462 0.25427425
000190 42 06 a6 3d 4f 1d e6 3e 90 fe d3 3d e0 61 6a bd
       0.08106662 0.44944236 0.10351288 -0.057222247
0001a0 73 ab 07 3f 24 7c f3 be 59 28 b2 be 57 68 63 be
       0.52995986 -0.4755565 -0.34796408 -0.22207771
0001b0 65 2f 5a 3d 9a 97 b1 3e 87 4e 40 bf 9f 1e 08 bf
       0.053267855 0.34685975 -0.75119823 -0.53171724
0001c0 a2 bf ac 3e 4a ac 87 be ba 76 c5 be 26 9b 1a 3f
       0.33739954 -0.26498634 -0.38567144 0.6039299
0001d0 c9 90 0f 3f 2b e6 34 be c3 b3 f0 3e 74 c0 09 bf
       0.560803 -0.17665927 0.47012147 -0.53809285
0001e0 e2 d3 91 be f7 fa 98 3e c7 f3 0f 3f da 70 6d be
       -0.28481966 0.2987897 0.5623135 -0.2318758
0001f0 11 72 46 3e f8 78 83 be 73 5e 8a be 0c 61 56 be
       0.1937945 -0.2567823 -0.27025184 -0.20935458
000200 48 81 e2 bc 09 17 50 3d 69 57 4a 3d b8 1e e0 bd
       -0.027649537 0.050803218 0.049399767 -0.10943359
000210 7d b6 96 bd 21 b4 c6 3d 57 ba 84 3c 22 ed 4d bd
       -0.073590256 0.097023256 0.016202135 -0.050274976
000220 99 55 b8 bd 49 04 99 bd da f9 65 ba 0f 3a 4a bd
       -0.090007015 -0.074715205 -0.00087728875 -0.049371775
000230 70 e8 0a 3e 85 8d 43 3e 3a 03 89 3e 93 65 9b 3c
       0.1356523 0.19096954 0.26760274 0.018969333
000240 64 ce 89 be be 0c 90 be b5 28 a6 3e bb a4 13 bf
       -0.26915276 -0.28134722 0.32452932 -0.57673234
000250 dc b7 04 3d 16 d2 fa 3d fd e7 e1 3d 2e 81 72 3d
       0.032401904 0.12247102 0.110305764 0.059205227
000260 76 b6 36 3d 02 8e 6a 3d 20 dd e2 bd 12 b7 88 3d
       0.044607602 0.057264335 -0.110773325 0.06675543
000270 a6 09 95 3e 08 51 3b 3e ed 32 ee 3d d5 3e ac bd
       0.29108924 0.1829263 0.11630807 -0.08410422
000280 30 16 f3 be 21 4c 25 bf 69 d8 07 3f bf 1d cf be
       -0.47477865 -0.6456929 0.5306459 -0.40452382
000290 ac 3f ef be a5 1a 06 3f 3d 3f 7c 3e 15 57 d0 be
       -0.46728265 0.52384406 0.24633498 -0.40691438
0002a0 cf 05 e9 3e ee 05 0c bf 18 6f 82 3e 40 97 46 bd
       0.45512244 -0.5469655 0.25475383 -0.048484087
0002b0 1f b3 c4 3d b7 46 f8 3d 86 f3 c3 3d 04 33 33 3c
       0.09604477 0.12122863 0.09567933 0.010937456
0002c0 4e e1 84 3e d8 a1 7e 3d d4 51 67 3d 43 76 28 bd
       0.25953144 0.062166065 0.05647452 -0.04112841
0002d0 e8 f8 40 3b af 38 e5 be 88 7c c6 bd 26 63 9d 3d
       0.0029445235 -0.4476981 -0.09691721 0.07684927
0002e0 a9 8d a1 be 42 04 8b 3e 05 84 92 3e ae 40 60 bd
       -0.3155339 0.27151686 0.28616348 -0.054749183
0002f0 74 d3 fe bc ca 24 1c be 9a 29 eb be ad 0c 56 bf
       -0.031106688 -0.15248409 -0.45930177 -0.8361309
000300 df f0 a4 3e c7 f5 15 be 6b 80 f5 be c1 e9 f3 3e
       0.3221502 -0.14644538 -0.47949538 0.47639278
000310 cb cc bc 3e 3e 51 e5 be 3d 6e 93 3e cf d6 1b bf
       0.36874995 -0.44788545 0.28795043 -0.60874647

fc_1.bias f4 [20]
000000 53 3a ac 3d 09 03 7c bd 9f d3 2e 3d 9b 62 a8 bd
       0.08409562 -0.061526332 0.042682286 -0.082219325
000010 65 b0 36 bd 19 23 5e bd 76 ff 06 bd bb 14 ec bd
       -0.044601817 -0.05423269 -0.03295847 -0.115273915
000020 ec 0e 1b 3e 8b 93 83 3d ea 8d 1b be 7d 45 04 3e
       0.15142411 0.06424626 -0.15190855 0.12917133
000030 ae 83 3b be ec 4c a1 3a f6 82 a5 3b 95 21 8b 3d
       -0.1831195 0.001230625 0.005051012 0.06793515
000040 10 ae 35 3d de 44 f0 3a f3 f7 04 3e a5 95 ae 3d
       0.044355452 0.0018331071 0.1298521 0.08524636

attention_2.in_proj_weight f4 [60, 20]
000000 84 44 5b 3f 60 bf 72 bf 59 54 b1 be 0d c6 81 bd
       0.8565142 -0.94823265 -0.34634665 -0.06336603
000010 e2 2f 32 be c4 73 30 bf ba 0d c1 be d7 3f 83 3e
       -0.17401078 -0.68926644 -0.37705785 0.25634643
000020 5a 16 59 3f bd bc 30 3e 6e 8e 59 bf 15 1d ac 3e
       0.8479973 0.17259498 -0.84982955 0.33615938
000030 bc 4b b1 bf 09 6d a9 3e 52 2f dd 3e 55 f6 f1 3d
       -1.3851237 0.33091 0.43200165 0.11814562
000040 91 df 16 3f 28 d7 36 3f d7 ea 84 3f 8f 69 20 3f
       0.58934885 0.7142205 1.0384167 0.6266107
000050 3a a8 0e 3e 6d 4d 2c 3e 1f 4c 5f be d2 89 26 3f
       0.13931361 0.1682641 -0.21806382 0.6505405
000060 91 59 b4 3e b9 93 78 be 53 85 c0 3e b0 5e d6 3e
       0.35224584 -0.24275102 0.37601718 0.41869116
000070 be a9 a5 be ba ed 95 be e3 79 e9 3e f2 52 72 bf
       -0.32356066 -0.29282933 0.45600805 -0.94657815
000080 2e d6 d8 3e 1d 12 77 be 65 6c 9d bf c9 91 79 bd
       0.42350906 -0.24128003 -1.2298704 -0.060930047
000090 93 a8 be be 8c e7 c0 3e 59 3e 53 bf c5 45 53 bf
       -0.37237987 0.37676656 -0.8251701 -0.82528335
0000a0 b1 c3 92 3a d5 64 2a be 2f de 52 bd c5 f0 14 3e
       0.0011197237 -0.16640027 -0.051481422 0.14544971
0000b0 31 b3 b4 be 32 a8 81 be ac ba 68 3d 08 f9 74 be
       -0.35292962 -0.25323635 0.05681865 -0.23923123
0000c0 b5 c6 d1 bd ea 08 cf 3c 18 71 87 be d3 f1 de 3e
       -0.102429785 0.025272805 -0.2645347 0.43543872
0000d0 c5 f0 f9 bd be 2e 9e bd 62 d2 91 3e d2 dc 0d 3e
       -0.12204126 -0.07723759 0.28480822 0.13853768
0000e0 7f 07 d5 3e 6b 56 84 bc e4 bd 42 3e 0f 77 df 3e
       0.41607282 -0.016154489 0.1901775 0.43645522
0000f0 1c 45 04 bd da d9 31 3e b5 49 04 3d 24 c8 56 be
       -0.03229247 0.1736826 0.032296855 -0.20974785
000100 38 82 fc 3e 08 78 37 3e 38 3d a8 bd ec 44 90 3e
       0.493181 0.17916882 -0.082148015 0.28177583
000110 c8 60 51 3e 96 18 12 be 86 21 7f 3e 22 d3 01 bf
       0.20447075 -0.14267191 0.24915132 -0.5071279
000120 ea 77 22 3e b2 cb ab 3d f5 d5 b2 be 24 28 fe bd
       0.15866056 0.08388461 -0.3492886 -0.1241
000130 f6 9e db be f4 a7 cb 3c 83 0b 4b be 86 dc 04 bf
       -0.42894715 0.02486036 -0.1982861 -0.5189899
000140 07 4a b6 3e ca 39 e4 be 70 d2 b7 3e e0 39 6d bf
       0.35603353 -0.4457534 0.3590274 -0.92666435
000150 25 bd b0 be 17 06 82 3d 88 d2 c9 be c1 28 92 3e
       -0.34519306 0.06348818 -0.39418435 0.28546718
000160 79 68 a6 3e c3 74 d6 3c 88 2b 0e be 0f e7 33 3f
       0.3250158 0.026178723 -0.13883793 0.7027444
000170 4e 61 cf 3b 93 a4 b3 bd e6 10 be 3d ba 4a f0 bb
       0.0063287383 -0.087716244 0.09280567 -0.007333127
000180 b8 43 0d 3d dc 6d 27 bf 3b 18 62 3e 95 f0 58 bc
       0.03448841 -0.6540201 0.22079556 -0.013240953
000190 f0 b8 99 be 3e c7 e9 3e 91 b3 6d bd d3 47 29 3f
       -0.3002391 0.45659822 -0.058032576 0.6612522
0001a0 e6 06 ff 3e 8c c0 8a 3e 53 78 1c 3e fb 56 06 be
       0.4980995 0.27100027 0.15280275 -0.13119118
0001b0 a0 5d bd be 74 b6 cc 3d 80 37 f5 3e c0 0b 35 bf
       -0.36985493 0.09995738 0.47893906 -0.70721054
0001c0 e9 12 9b 3d d9 9c 83 3e f8 5f fe bd 19 15 f5 bc
       0.07571966 0.25705603 -0.12420648 -0.029917287
0001d0 ac bd ba be 6b ef 3a 3f b9 22 a9 be 09 7a 5e be
       -0.36472833 0.7302157 -0.33034304 -0.2172624
0001e0 27 6d 18 bd f9 67 20 3e 79 73 9d 3c 4e 51 12 bd
       -0.03721347 0.15664662 0.0192201 -0.03572207
0001f0 2d 28 10 3e c9 0c d9 3d 40 65 21 bc 66 d0 b1 3c
       0.14077826 0.10598142 -0.0098508 0.021705817
000200 0d 80 34 3d 7f d8 d7 3c 5b 6c ee 3d 36 b2 18 be
       0.04406743 0.02634835 0.11641761 -0.14911732
000210 c3 57 d4 3d 7e cc ac ba d3 50 1a bd 4b d5 65 bd
       0.10368302 -0.0013183502 -0.037674736 -0.056111615
000220 34 07 3e be a4 68 8f 3b 5c f1 ce bd 33 34 0f be
       -0.18557435 0.004376488 -0.101046294 -0.13984756
000230 ce bb ba 3c 3f f0 27 be 33 cc 59 bd 7a 57 85 3e
       0.02279463 -0.1640024 -0.053173255 0.26043302
000240 c2 81 66 be 7b 74 1e be bc f4 f6 3b c5 c0 c9 3c
       -0.22510436 -0.15474121 0.007536499 0.024628052
000250 84 13 da bc b1 89 52 bd d3 a0 2c be c1 43 8e 3e
       -0.026620634 -0.051400844 -0.16858225 0.27786067
000260 ac 23 2d be 9b a5 a3 bc ff 62 13 3d cc 2d 62 3d
       -0.16908139 -0.019976428 0.035983082 0.055219457
000270 58 3e 88 3e c6 24 9e 39 2b 3e 27 3e f0 41 5b 3e
       0.26610065 0.00030163507 0.16332309 0.21411872
000280 ed 55 87 bd c8 99 20 3f c3 ac 88 3e 3c 65 4f be
       -0.06608186 0.6273465 0.26694307 -0.20253462
000290 24 ec 4b 3f 6c 2e 74 3f c6 e7 34 bf bd 29 9a 3d
       0.79657197 0.95383334 -0.7066616 0.07527492
0002a0 0d 62 bb 3e ee a8 0c be 3c 46 68 3e cd d0 81 bf
       0.36598244 -0.13736317 0.22683042 -1.0141846
0002b0 90 1c c3 bd c3 57 89 3e 55 a4 d8 be 16 e0 35 bf
       -0.09526932 0.2682477 -0.42312875 -0.71045053
0002c0 85 9e 1d bf b2 bf b0 bd 23 ff e1 bd db 1b b2 be
       -0.61570007 -0.08630313 -0.110349916 -0.34786877
0002d0 e3 99 45 bd 08 54 01 3f b0 2d 99 3e 41 bc 99 be
       -0.04824246 0.50518847 0.2991767 -0.3002644
0002e0 8f 11 46 3f 22 c6 8c 3f 3c 7f 56 bf 67 db 01 bd
       0.7737054 1.0997965 -0.83787894 -0.03170338
0002f0 c3 53 29 3f 4e e6 24 be fa 38 4b 3e a0 80 84 bf
       0.66143435 -0.1610348 0.19845954 -1.0351753
000300 9e 5c 9d be 2b 94 a6 3e 32 6f af be 40 d2 62 bf
       -0.30734724 0.32534918 -0.34264523 -0.88602066
000310 27 4d 2e bf cd ab 46 be 10 7d ad bd ce 20 a8 be
       -0.68086475 -0.19401474 -0.084711194 -0.32837528
000320 ed 5e 30 bd f7 15 02 3f 5b 5c 72 3e ed 02 aa be
       -0.04305928 0.50814766 0.23668043 -0.33205357
000330 70 6d 1d 3f 88 a8 13 3f 9d 24 9d be 78 b9 fe 3c
       0.61495113 0.57679033 -0.30691996 0.031094298
000340 3b 80 02 3f a9 26 a6 3d a7 c2 ec 3e 0e d3 4c bf
       0.50976914 0.081128426 0.46242258 -0.80009544
000350 ab f0 cf 3d ec 50 2d 3e 67 58 31 be a1 4e ab be
       0.10153326 0.169254 -0.17318879 -0.33458427
000360 a5 2d 40 bf ef 6a 33 bc e9 ed 25 be ab a9 2b bf
       -0.7506965 -0.010950788 -0.16204037 -0.6705577
000370 33 61 67 bd a2 93 0c 3f f5 e7 00 3e 5e cc b0 be
       -0.05648918 0.5491277 0.12588485 -0.3453092
000380 6f 7c 07 3f ff 31 1d 3f 58 d2 85 be c2 31 cd 3d
       0.52924246 0.61404413 -0.26137042 0.10019256
000390 08 61 fb 3e df b9 b3 3c e3 1f ae 3e b4 44 55 bf
       0.49097466 0.021939216 0.34008703 -0.8330796
0003a0 66 ef a6 bc 5b dd 40 3e a6 0d 32 be db ce 87 be
       -0.020377826 0.1883444 -0.17388019 -0.26525006
0003b0 9d 9f 38 bf 86 34 41 bd 95 76 bd bd 1d 6b 19 bf
       -0.7211855 -0.04716923 -0.09251133 -0.59929067
0003c0 8d f2 b2 bd a2 f9 d6 3d fd a7 93 bb c6 76 84 bc
       -0.08737669 0.104968324 -0.0045061097 -0.016169917
0003d0 32 8d 4b 3e b1 bd ea 3d e1 e3 8b 3d d9 89 96 bc
       0.1987808 0.11461962 0.06830574 -0.018376278
0003e0 19 f6 d8 3d 4a 56 9c bd d1 94 98 3e 07 8e 80 be
       0.105938144 -0.07633646 0.29801038 -0.25108358
0003f0 ea cf 19 3e 8c ec b9 bd 2c b7 df bc e1 91 ec bd
       0.15020719 -0.09078321 -0.027309023 -0.11551262

attention_2.in_proj_bias f4 [60]
000000 02 5f 3e 3f d1 a6 bc bf 22 ea 2d 3e 53 54 34 be
       0.7436372 -1.4738408 0.16983846 -0.17610292
000010 b0 26 e9 3f d6 e6 ba bf 5e 6c 2e be 63 b9 6b 3e
       1.8214931 -1.4601696 -0.17033526 0.23019938
000020 5b 48 17 bf 89 3a c3 be f0 74 a0 be 95 74 80 be
       -0.5909478 -0.38130596 -0.31339216 -0.25088945
000030 57 e7 8b 3d 06 4f 87 bd f5 0b 8b be f7 03 4c be
       0.06831234 -0.066068694 -0.2715756 -0.19923387
000040 67 36 b4 bb b2 46 07 bc 2e 1f 0f 3e 0c 61 b8 3e
       -0.0054996493 -0.008256601 0.13976738 0.3601154
000050 35 ae 10 33 0a f6 ad b5 6c 86 8f b4 f0 e5 b4 34
       3.3686053e-08 -1.2961111e-06 -2.673363e-07 3.3694914e-07
000060 cf 61 40 b6 43 aa d7 b7 20 36 02 33 84 07 a6 b3
       -2.8667162e-06 -2.5709282e-05 3.031721e-08 -7.7313445e-08
000070 c2 08 6e 36 6a c5 6d 36 17 23 e2 36 f9 6f d6 36
       3.5469861e-06 3.5430662e-06 6.73941e-06 6.3907323e-06
000080 a4 72 c1 31 86 b5 8a 30 05 da 22 34 a6 7a ce 33
       5.6300724e-09 1.0092414e-09 1.5166741e-07 9.614932e-08
000090 62 ab 85 33 aa 62 a4 33 1d 87 7d b2 0d 30 d1 b3
       6.2244695e-08 7.654792e-08 -1.4757259e-08 -9.741061e-08
0000a0 cd 41 d4 3c 27 a0 cf bc 6a 59 da 3c c1 6c 35 b9
       0.025910283 -0.025344921 0.026653964 -0.00017302019
0000b0 b6 05 f1 3c 5a 44 58 bd ac 61 34 bc 2e 5b 49 3a
       0.029421668 -0.05279956 -0.011009615 0.00076811283
0000c0 c3 56 91 3c 1e 90 9e bc 40 61 3e 3d 3c a8 dd ba
       0.017741567 -0.01935583 0.046479464 -0.00169111
0000d0 2c 33 99 bc 12 c3 52 bc a2 20 d7 3b c4 41 de 3a
       -0.018701158 -0.012863891 0.0065651694 0.0016956856
0000e0 9b 6b 8d bc 45 7a 3b bb 32 66 9a 3c 72 35 e6 bc
       -0.017263224 -0.0028606814 0.018847559 -0.028101657

attention_2.out_proj.weight f4 [20, 20]
000000 1e b2 db bd 60 e6 6d 3e 63 47 87 bd 60 63 c1 bd
       -0.107273325 0.23232412 -0.06605413 -0.094427824
000010 13 5d 79 3d 73 c5 90 bb e7 84 1d bd fd c2 69 3d
       0.060879778 -0.004418069 -0.038456824 0.05707072
000020 7f 36 23 3d 7e df a4 bd bd a9 8b be be 04 21 be
       0.039846893 -0.0805044 -0.27277938 -0.15724465
000030 e0 4c 8e bb 29 55 7c 3d c7 7e 4b 3d 22 00 d9 bd
       -0.0043426603 0.061604653 0.04968145 -0.105957285
000040 30 ab 8f 3d 1c 2a b4 3d 4b 36 06 bd 1c 07 39 bd
       0.07015073 0.08797094 -0.03276662 -0.045172796
000050 78 47 9a bd a1 dc c7 3d 6f 81 cb bd a1 16 12 be
       -0.07533163 0.097588785 -0.09936797 -0.14266445
000060 52 c8 b0 bd a6 3e 2a 3d d1 a4 16 bc 75 9d 87 bc
       -0.08631958 0.041563652 -0.009194569 -0.016554574
000070 b2 c7 89 bd 57 c2 19 be 13 ec de be 94 9a 27 be
       -0.06727542 -0.15015541 -0.43539485 -0.1636756
000080 f4 bf 11 3d a6 bd c6 39 34 a1 81 3c bf 52 b2 bd
       0.03558345 0.00037906802 0.015823938 -0.08707189
000090 09 59 af 3b bc 63 ae 3d 89 db 8a bd 3b 69 31 3d
       0.00535119 0.085151166 -0.06780154 0.043313246
0000a0 e8 4b 6d 3d 23 4d a2 bd 90 74 c4 3c 71 40 11 be
       0.057933718 -0.07924869 0.023981363 -0.14184739
0000b0 a9 7e aa bb 11 12 77 3c 56 b3 92 3c 93 70 0a bd
       -0.0052030873 0.015079991 0.01790778 -0.033798765
0000c0 72 15 b2 bd 7b 67 0c be d5 24 56 bb d3 c7 a8 3b
       -0.086954966 -0.1371135 -0.0032675762 0.005150774
0000d0 d0 ff 98 bd e6 92 1d 3d d2 8f 09 3d e6 a4 8b bc
       -0.07470667 0.03847017 0.033584423 -0.017046403
0000e0 7c 7a 5d bd 2e b5 3d ba 20 9c 06 3c d9 1a 03 3c
       -0.05407189 -0.0007236776 0.008215934 0.008002006
0000f0 f9 b7 6d bb 6d 07 5c 3e bc 2c fc 3b d3 fa f5 3a
       -0.0036272986 0.21487208 0.0076957624 0.0018766768
000100 74 dd 13 3b d2 2d 2f 3f eb 7b 39 3b 5e 22 ad 3b
       0.0022562416 0.6842929 0.002830262 0.005283638
000110 ab 24 0c 3d 3f 70 a4 bb 0f 89 58 3c 41 22 82 3c
       0.034214657 -0.0050182636 0.013216271 0.015885474
000120 6f 1a 5d bb 56 61 a1 bb dc c9 53 bb 2d ce 0e bc
       -0.003373768 -0.0049249334 -0.0032316362 -0.008716148
000130 ca 78 09 bb e5 e4 7d 3b c6 67 91 3b c9 b0 a6 3a
       -0.0020976537 0.0038741168 0.0044374196 0.0012717481
000140 01 61 14 be f9 20 8a 3d 85 63 66 3d 1b bf 69 3d
       -0.14490129 0.0674457 0.056247253 0.057067018
000150 ab 15 75 3d 57 b3 87 bc 38 31 a1 bd d3 45 ce 3d
       0.059835117 -0.016565008 -0.07870716 0.10071912
000160 18 01 70 3e ce 90 f6 3c 97 fc 3c 3e 34 9c e2 bc
       0.23437917 0.030098345 0.1845573 -0.027662374
000170 c5 bf 27 3d e6 b4 2b 3d e1 47 bb bc 61 fe cc 3d
       0.04095437 0.041920565 -0.022861423 0.100094564
000180 4f 74 d7 3c e0 df 7b bd 8f cd 19 3d 60 83 13 bd
       0.026300577 -0.0614928 0.03754955 -0.03601396
000190 5d 76 f7 bd e2 36 72 3e a7 a6 9d bd ca 60 e8 3c
       -0.12083123 0.23653749 -0.07697802 0.028366465
0001a0 9c de ac bb 87 b0 ab bc 71 60 29 bc ce 1a b4 3d
       -0.0052755605 -0.020958198 -0.010337935 0.08794175
0001b0 97 a5 44 3d cb b2 76 3d ae 2b a6 bd 29 15 f0 bc
       0.04800948 0.060229104 -0.081138 -0.029306965
0001c0 33 3e d1 bd 2d bc ea 3c e0 1b 72 3c 32 a6 cf bd
       -0.10216942 0.028654182 0.014777154 -0.10139121
0001d0 3a 13 48 3d ad 17 68 3d 02 be 41 3c 03 01 e1 bb
       0.04884646 0.056663204 0.011825087 -0.0068665757
0001e0 20 db 95 3c db 68 17 3d 96 84 1e 3d 7a 63 32 3d
       0.018292964 0.036965232 0.038700663 0.0435519
0001f0 88 b7 77 bd 50 48 b9 bb 41 c5 64 bc ff 34 0f bd
       -0.060477763 -0.0056543723 -0.013963045 -0.03496265
000200 b3 dc 9c bd 87 93 94 3c f2 ec 2b bd c4 5b c6 bc
       -0.076592825 0.018136753 -0.041974016 -0.02421368
000210 46 10 0d bd 24 c3 75 bc 47 7e 3a 3d 02 e6 23 bd
       -0.034439348 -0.015000138 0.045530584 -0.040014274
000220 80 4f 83 bb 37 6c 38 3d dc 95 0f bd 65 a9 2e 3d
       -0.00400728 0.045025077 -0.035055026 0.042642016
000230 14 33 40 3d e4 5b 60 3d f5 c3 b4 3c e0 02 93 bc
       0.046923712 0.054775134 0.022066096 -0.017945707
000240 02 75 4f bd 81 34 ed ba 41 0d e8 bc ca 7b 2a bd
       -0.050648697 -0.0018097312 -0.028326632 -0.04162196
000250 32 79 11 be 3d 52 40 bd 4f 72 8e bd fd 78 b6 bc
       -0.14206389 -0.04695343 -0.069553964 -0.022274489
000260 db bb e0 3c 75 9b 03 3d fa 88 ad bc 73 8f bc 3c
       0.027433326 0.032130677 -0.02118348 0.02301762
000270 49 c2 cb bc fe ee 84 bd b5 d4 04 bd c7 ee b8 3c
       -0.024872916 -0.06490897 -0.032429416 0.022574795
000280 40 fa f7 3c e1 0c e3 3b 71 c5 ff bc 22 ec ed bd
       0.030270696 0.0069290255 -0.031222077 -0.116173044
000290 c1 65 a2 bd de 1b 92 3c 31 1b a0 bd cf a1 29 be
       -0.07929564 0.017835554 -0.07817686 -0.16565631
0002a0 dc e9 ea bc f1 c1 05 bd 08 96 85 be ee 25 8e bd
       -0.028675966 -0.03265566 -0.26091027 -0.06940828
0002b0 86 d4 2b 3d 9e ba 83 3d a3 a9 ed 3c 24 27 75 3d
       0.041950725 0.06432079 0.029011553 0.05985178
0002c0 e7 66 5d 3d 78 48 22 3d 07 a4 c0 bd 71 df 28 3d
       0.054053213 0.039619893 -0.09406286 0.041228715
0002d0 cb 8d fd bb e3 4a e8 bd 29 06 98 bc cc 9a 57 bd
       -0.0077378503 -0.113424085 -0.018557625 -0.05263786
0002e0 6c 80 7c 3c dc a2 f0 3c 0a 51 30 3d e0 f8 09 3d
       0.015411478 0.029374532 0.043046035 0.03368461
0002f0 1e 1f 50 bd cf 25 1a 3d 03 a0 e8 3c e6 f5 8d bd
       -0.050810926 0.037633713 0.028396612 -0.06931667
000300 94 c6 a1 bc e6 36 58 bd 2d 12 c8 3c c3 73 c5 bc
       -0.01974801 -0.05278673 0.02442273 -0.024103051
000310 b0 46 24 bd b4 48 91 bd 76 58 1c 3b f6 35 3e bd
       -0.040106475 -0.07093945 0.0023856438 -0.04643818
000320 22 82 80 3d 4f 68 f1 3d e6 3c d8 3d ec 29 2e 3e
       0.06274821 0.117874734 0.105584905 0.1700818
000330 df 41 8c 3b 1f 57 de 3c 48 29 10 3d fd 3c 18 3d
       0.0042803134 0.027141152 0.03519562 0.037167538
000340 da 77 f9 be de 75 00 3e 66 b2 12 3e 24 9b 5a 3e
       -0.48724252 0.12544963 0.14325866 0.21348244
000350 26 14 58 bd e5 61 2c bc 5f 29 82 bd 58 16 5d 3c
       -0.05275359 -0.010521387 -0.06355547 0.013494097
000360 92 c3 1b bc 81 16 c0 bd fa 21 d5 3d 41 55 55 bd
       -0.009507077 -0.09379292 0.10406871 -0.052083258
000370 34 99 38 bd 07 6c 8d 3d 24 32 0f bc 9e 42 36 bd
       -0.04506798 0.0690537 -0.008739982 -0.044497125
000380 d7 a1 e0 3c cd bf d5 bb 7c f9 11 bd 6f 3b 47 3d
       0.027420921 -0.0065231086 -0.035638317 0.048640665
000390 d2 d3 18 3e a1 ca 46 bc 75 e4 01 be 83 0c 38 3d
       0.14924553 -0.012133271 -0.12684806 0.044933807
0003a0 25 49 a1 bd 5b 1a ca 3d 55 04 7f bd 04 e5 6d 3d
       -0.07875279 0.09868308 -0.06225999 0.058079734
0003b0 d0 dd 55 3d 80 69 c2 bd d4 88 13 3d 9e 4f c7 38
       0.05221349 -0.09492779 0.03601916 9.503889e-05
0003c0 18 be a4 3c 00 e9 9c 3e 7c a9 22 3d 95 91 cf bc
       0.020110175 0.30646515 0.039712414 -0.025337974
0003d0 4c b1 75 bd d0 a1 fa 3a 3e fd bf bc 1a ac 71 bd
       -0.059983537 0.001912171 -0.023436185 -0.05900202
0003e0 f1 ee f6 be fa 5e 7e 3c 48 f2 1a 3e 0d 10 31 3c
       -0.48229173 0.015525574 0.15131485 0.010807049
0003f0 ad 4f 34 3d a1 12 83 bc 14 64 74 3d 5f 04 22 3e
       0.044021297 -0.016000094 0.059665754 0.1582198

attention_2.out_proj.bias f4 [20]
000000 ab 3d 78 3b 88 5b 5d 3b f7 11 09 3c df 56 bc bd
       0.0037878554 0.003377648 0.0083661 -0.09196257
000010 ac 02 a2 bc 95 29 9c 3b 4e 2f 61 bc db 0e 9a bb
       -0.019776665 0.004765699 -0.0137441885 -0.004701478
000020 c0 9a b6 3b 01 1b 21 bb d8 62 b0 bc 5c 21 79 3b
       0.005572647 -0.0024582746 -0.021531507 0.0038014269
000030 2f a7 f9 ba 43 20 8d bb 8a 07 83 3b 05 58 df bc
       -0.0019047017 -0.0043068244 0.0039987015 -0.02726365
000040 1f 5e 4e 3c c2 b1 38 3c dd c4 74 3b 9d ec 63 bc
       0.012595682 0.0112728495 0.0037348785 -0.0139113935

lstm_2.weight_ih f4 [40, 20]
000000 56 f6 f5 3c f9 c4 07 bd 31 01 c6 bc d5 54 d1 3e
       0.030024689 -0.033146832 -0.02417049 0.40885034
000010 86 b6 31 3e 8f 76 c8 bc 4d d7 98 bd 46 6c 8a bd
       0.17354783 -0.024470596 -0.0746294 -0.06758933
000020 b0 8a a7 bd 2a a1 10 be 95 98 36 3e ed 28 b9 3b
       -0.081807494 -0.14123979 0.17831643 0.0056506307
000030 71 31 12 bb e7 a3 cc bd b5 43 6b bd b9 5d 79 be
       -0.0022307301 -0.099921994 -0.057437617 -0.24352159
000040 66 67 99 be bd 50 28 bb fe 8e 75 bd f0 02 15 bd
       -0.299617 -0.002568289 -0.05995082 -0.036379755
000050 28 e6 01 3e 4c 02 e0 bd bb 47 8e bc 2e 4f a3 3e
       0.12685454 -0.10937938 -0.017368188 0.31896347
000060 4b 94 25 3e 97 12 7a be a8 c1 ad 3d 8b 0b 9c 3d
       0.1616985 -0.24421154 0.084842026 0.07619389
000070 e4 43 9d 3d 78 a2 94 3e 2a eb a4 3d 07 73 ae bd
       0.07678965 0.29030204 0.080526665 -0.085180335
000080 a9 d7 b5 be dc 2f e5 bb 96 d5 16 3e 5d 8e dc 3d
       -0.35516098 -0.0069942307 0.14729914 0.10769341
000090 30 04 05 3d ee b5 f5 bd 5a 58 72 bd f4 f1 f9 bc
       0.032474697 -0.11997591 -0.05916629 -0.03051088
0000a0 c0 bb 8f bd 03 bf ff bd de b1 13 bd 7d 80 48 bf
       -0.07018232 -0.124876045 -0.0360583 -0.7832106
0000b0 55 29 b9 bd 6c 47 69 bd bd fe 54 be 37 62 be bd
       -0.090410866 -0.05695288 -0.208003 -0.09296077
0000c0 6c 00 9a bd 50 3c 1e be 0a 08 20 bf 2e a0 85 3e
       -0.07519612 -0.15452695 -0.62512267 0.2609877
0000d0 8b 6a de be ff 59 1e 3e e6 a5 a1 bc f3 50 94 bd
       -0.4344066 0.15464018 -0.019732427 -0.07242002
0000e0 60 46 4d bd b5 4d 60 bc 17 00 8a 3d a4 87 c9 be
       -0.050115943 -0.013690402 0.067382984 -0.39361298
0000f0 b6 a6 e3 bc 00 ac 29 be 48 ed 04 be 54 98 06 bf
       -0.027789455 -0.16569519 -0.1298114 -0.52576184
000100 3b 58 d3 3e a6 92 d8 bc 7d cc 03 be 91 d6 96 bd
       0.41278252 -0.026437115 -0.12870975 -0.07365144
000110 09 87 a4 bd 7f 36 ac 3d 36 3e 16 bf 9c b0 42 3e
       -0.080335684 0.08408832 -0.58688676 0.19012684
000120 0a de 0a bf d0 27 f8 bd 56 36 02 bc 20 d3 0d 3d
       -0.54245055 -0.12116969 -0.007947525 0.034625173
000130 dd d9 e9 be c5 46 8e 3c 0e 32 a4 3c 0e e4 bd be
       -0.4567403 0.01736773 0.0200434 -0.37088054
000140 98 2e 51 3d b3 28 2c 3e 56 ae 13 3d 14 67 0d be
       0.051069826 0.168124 0.03605493 -0.13808852
000150 10 1e 07 be 83 b3 f3 3d a8 71 d1 bc 9b 43 a9 bd
       -0.13195062 0.118994735 -0.02556689 -0.08264848
000160 4b bd c4 3d 85 03 39 bd fd 3c 5e be 05 45 d8 3d
       0.09606417 -0.045169372 -0.21702953 0.105600394
000170 6e a0 3c be 9c 9f c0 3d aa f5 18 bd 21 05 00 bd
       -0.18420574 0.09405443 -0.03734366 -0.03125489
000180 f1 4b bb 3a 49 14 65 3c c0 c0 04 bc 96 42 6c bd
       0.00142896 0.013981887 -0.008102596 -0.05768069
000190 2f fd 2f be e9 db 31 bf ea be 23 be d0 77 c1 bd
       -0.17186426 -0.6947618 -0.15990797 -0.094466805
0001a0 e8 b1 0e 3e a3 da bf be ec 7a e2 bc e3 d3 5f bd
       0.13935053 -0.37471494 -0.027646504 -0.05464543
0001b0 9a 88 cd be 45 fb ce 3e 8f ef d9 bd bd ad 55 be
       -0.4014328 0.40426078 -0.10641395 -0.20867057
0001c0 d4 9c d9 be 4b 16 95 3e 3c 1a ba 3d c1 b4 02 3f
       -0.42502463 0.2911857 0.09087035 0.5105706
0001d0 8d e6 f3 3d 84 ed ec be 67 03 20 3e df e8 0d be
       0.119092084 -0.4627496 0.15626298 -0.13858365
0001e0 98 f0 a0 3e 1f 42 81 3e b5 ef 0a 3d 02 92 5e 3e
       0.31433558 0.2524576 0.03392001 0.21735385
0001f0 e8 f2 5a be e5 0a 9d 3c ee 00 e3 3d 3e e0 a7 be
       -0.21381724 0.019170234 0.11084162 -0.3278827
000200 c9 ca 00 3f 55 e4 7d 3d 32 3a d2 be a7 36 66 3e
       0.50309426 0.061985333 -0.41060024 0.22481786
000210 c7 c4 ce be 82 47 81 3e 14 55 60 3c cb 7e fb be
       -0.40384504 0.2524987 0.013692159 -0.49120173
000220 26 47 f9 3d 17 ef 94 3e 53 ce 58 be 9c 6f 5d be
       0.121717736 0.2908866 -0.21172456 -0.21624607
000230 bc 4f 87 be 1d 6f 3e be ea 2f de 3d 3d 7c af be
       -0.2642802 -0.18597074 0.10848983 -0.34274474
000240 36 dc d7 bd d4 9e ba be 7a 86 e4 bd c5 77 24 be
       -0.10540049 -0.364493 -0.11158462 -0.16061313
000250 d9 a9 aa bc dc e4 22 bd ba f7 1c bd 3d 66 c8 bd
       -0.020832943 -0.03976904 -0.038322188 -0.097851254
000260 d1 32 a3 3c c8 2e 2a 3e 83 44 0b 3e 09 55 84 bd
       0.019921692 0.16619408 0.13600354 -0.06461532
000270 b0 85 f1 3d ec f4 d6 3b 66 e1 3c 3e c8 c9 87 bd
       0.11793077 0.0065599587 0.18445358 -0.066302836
000280 42 14 4c be 94 16 72 be 45 3f 87 bd 42 29 99 3d
       -0.19929603 -0.23641425 -0.066038646 0.074785724
000290 15 8c c5 3d d6 c1 16 be 0f 02 ff bd ce b7 0f 3e
       0.09645859 -0.1472238 -0.124515645 0.1403496
0002a0 a0 85 8c be bf 61 5a bd e3 7b 8d be 2b 08 03 be
       -0.27445698 -0.053315874 -0.2763358 -0.12796085
0002b0 27 51 af be 27 af a3 bc 7b 81 87 bd f7 22 73 3e
       -0.34241602 -0.01998098 -0.06616493 0.23743807
0002c0 d9 03 09 3d 2d e5 01 be 9d ab 53 3e a7 d0 77 bd
       0.033450935 -0.1268508 0.20670934 -0.06050172
0002d0 0a e6 4c bd f2 3b 2f 3e e8 8f b6 3d 12 9c 91 3c
       -0.05002407 0.17112711 0.08914167 0.017774615
0002e0 31 12 bf bc c6 51 28 be 31 bc 97 bd 5e 9a b5 bc
       -0.023324104 -0.16437444 -0.074089415 -0.022168335
0002f0 bb 12 bb bc d9 54 5c 3e 4b f9 45 be a8 7c 33 3d
       -0.02283608 0.21516742 -0.19333379 0.043820053
000300 98 09 a7 be 92 3a f7 3c 3e e8 be 3d 7b 96 14 3d
       -0.32624507 0.030179296 0.093216404 0.03627632
000310 63 26 85 3e da 63 a3 bd 30 0b 02 3e d3 9d 0f 3d
       0.2600585 -0.079780295 0.1269958 0.035062622
000320 9e d7 9b 3c d9 82 f9 3d c8 c7 06 be af 02 09 3e
       0.019023713 0.1218316 -0.13162148 0.1337993
000330 a2 c7 14 bd 81 31 15 be 1f bb 31 3e bf d3 c4 3c
       -0.036323197 -0.14569665 0.17356537 0.02402675
000340 f9 5b 8e 3e 17 2d f8 3c ab ad d8 3e 7b 96 5d 3c
       0.27804545 0.030294938 0.42319998 0.013524647
000350 fb e1 9f 3e da 16 45 3d de 85 2f 3d c2 8f f5 bd
       0.31227097 0.048117496 0.042852275 -0.1199031
000360 95 89 98 3c eb fa ba 3c b0 31 e0 bd cb e5 cd 3d
       0.018620292 0.022824725 -0.10946977 0.10053595
000370 7c e5 51 be ed 76 81 be f3 9f 1c be b2 51 7d 3f
       -0.20497698 -0.25286046 -0.15295391 0.9895278
000380 f5 2c 0c bd 03 8d 4e bd 39 3a 8b 3e ff 6d 19 3e
       -0.034222562 -0.050427448 0.27192858 0.14983366
000390 c5 99 7e 3d a7 00 dc bb 38 2b 0e 3f ca c4 4b be
       0.062158365 -0.006713945 0.55534697 -0.19899288
0003a0 fc 41 77 3e 0e 8d ae 3d b1 9e 80 bd ee 44 fc 3d
       0.24146265 0.08522998 -0.06280268 0.12317835
0003b0 70 63 80 be a3 a2 06 3d 4b 3b f9 bd 16 78 9c 3e
       -0.25075865 0.032869946 -0.12169512 0.30560368
0003c0 ab c6 97 bd 4c b0 dd bc 05 b6 8b 3d f6 90 b7 3e
       -0.0741094 -0.027061604 0.06821827 0.35852784
0003d0 4e dd b2 3d fd d1 1f be 3c 24 65 be a5 19 52 be
       0.08733617 -0.15607448 -0.22377104 -0.20517595
0003e0 2c 8c f0 bd 7a 74 84 3e 54 99 41 3e b8 a6 1f bc
       -0.11745486 0.25870115 0.18906146 -0.009744339
0003f0 6e bc d1 bd 20 31 36 3e 88 6f 2f 3e 02 7d 57 3d
       -0.10241018 0.17792177 0.1713239 0.05260945
